<?xml version="1.0"?>
<net name="Model0" version="11">
	<layers>
		<layer id="0" name="input_features" type="Parameter" version="opset1">
			<data shape="?,?,3000" element_type="f32" />
			<output>
				<port id="0" precision="FP32" names="input_features">
					<dim>-1</dim>
					<dim>-1</dim>
					<dim>3000</dim>
				</port>
			</output>
		</layer>
		<layer id="1" name="input_features/fq_output_0/input_low" type="Const" version="opset1">
			<data element_type="f32" shape="" offset="0" size="4" />
			<output>
				<port id="0" precision="FP32" />
			</output>
		</layer>
		<layer id="2" name="input_features/fq_output_0/input_high" type="Const" version="opset1">
			<data element_type="f32" shape="" offset="4" size="4" />
			<output>
				<port id="0" precision="FP32" />
			</output>
		</layer>
		<layer id="3" name="input_features/fq_output_0/output_low" type="Const" version="opset1">
			<data element_type="f32" shape="" offset="0" size="4" />
			<output>
				<port id="0" precision="FP32" />
			</output>
		</layer>
		<layer id="4" name="input_features/fq_output_0/output_high" type="Const" version="opset1">
			<data element_type="f32" shape="" offset="4" size="4" />
			<output>
				<port id="0" precision="FP32" />
			</output>
		</layer>
		<layer id="5" name="input_features/fq_output_0" type="FakeQuantize" version="opset1">
			<data levels="256" auto_broadcast="numpy" />
			<input>
				<port id="0" precision="FP32">
					<dim>-1</dim>
					<dim>-1</dim>
					<dim>3000</dim>
				</port>
				<port id="1" precision="FP32" />
				<port id="2" precision="FP32" />
				<port id="3" precision="FP32" />
				<port id="4" precision="FP32" />
			</input>
			<output>
				<port id="5" precision="FP32">
					<dim>-1</dim>
					<dim>-1</dim>
					<dim>3000</dim>
				</port>
			</output>
		</layer>
		<layer id="6" name="Constant_1707755" type="Const" version="opset1">
			<data element_type="i8" shape="1280, 80, 3" offset="8" size="307200" />
			<output>
				<port id="0" precision="I8">
					<dim>1280</dim>
					<dim>80</dim>
					<dim>3</dim>
				</port>
			</output>
		</layer>
		<layer id="7" name="Convert_1707756" type="Convert" version="opset1">
			<data destination_type="f32" />
			<input>
				<port id="0" precision="I8">
					<dim>1280</dim>
					<dim>80</dim>
					<dim>3</dim>
				</port>
			</input>
			<output>
				<port id="1" precision="FP32">
					<dim>1280</dim>
					<dim>80</dim>
					<dim>3</dim>
				</port>
			</output>
		</layer>
		<layer id="8" name="Constant_1707757" type="Const" version="opset1">
			<data element_type="f32" shape="1280, 1, 1" offset="307208" size="5120" />
			<output>
				<port id="0" precision="FP32">
					<dim>1280</dim>
					<dim>1</dim>
					<dim>1</dim>
				</port>
			</output>
		</layer>
		<layer id="9" name="__module.conv1/aten::_convolution/Convolution/fq_weights_1" type="Multiply" version="opset1">
			<data auto_broadcast="numpy" />
			<input>
				<port id="0" precision="FP32">
					<dim>1280</dim>
					<dim>80</dim>
					<dim>3</dim>
				</port>
				<port id="1" precision="FP32">
					<dim>1280</dim>
					<dim>1</dim>
					<dim>1</dim>
				</port>
			</input>
			<output>
				<port id="2" precision="FP32">
					<dim>1280</dim>
					<dim>80</dim>
					<dim>3</dim>
				</port>
			</output>
		</layer>
		<layer id="10" name="__module.conv1/aten::_convolution/Convolution" type="Convolution" version="opset1">
			<data strides="1" dilations="1" pads_begin="1" pads_end="1" auto_pad="explicit" />
			<input>
				<port id="0" precision="FP32">
					<dim>-1</dim>
					<dim>-1</dim>
					<dim>3000</dim>
				</port>
				<port id="1" precision="FP32">
					<dim>1280</dim>
					<dim>80</dim>
					<dim>3</dim>
				</port>
			</input>
			<output>
				<port id="2" precision="FP32">
					<dim>-1</dim>
					<dim>1280</dim>
					<dim>3000</dim>
				</port>
			</output>
		</layer>
		<layer id="11" name="__module.conv1/aten::_convolution/Reshape_compressed" type="Const" version="opset1">
			<data element_type="f16" shape="1, 1280, 1" offset="312328" size="2560" />
			<output>
				<port id="0" precision="FP16">
					<dim>1</dim>
					<dim>1280</dim>
					<dim>1</dim>
				</port>
			</output>
		</layer>
		<layer id="12" name="__module.conv1/aten::_convolution/Reshape" type="Convert" version="opset1">
			<data destination_type="f32" />
			<rt_info>
				<attribute name="decompression" version="0" />
			</rt_info>
			<input>
				<port id="0" precision="FP16">
					<dim>1</dim>
					<dim>1280</dim>
					<dim>1</dim>
				</port>
			</input>
			<output>
				<port id="1" precision="FP32">
					<dim>1</dim>
					<dim>1280</dim>
					<dim>1</dim>
				</port>
			</output>
		</layer>
		<layer id="13" name="__module.conv1/aten::_convolution/Add" type="Add" version="opset1">
			<data auto_broadcast="numpy" />
			<input>
				<port id="0" precision="FP32">
					<dim>-1</dim>
					<dim>1280</dim>
					<dim>3000</dim>
				</port>
				<port id="1" precision="FP32">
					<dim>1</dim>
					<dim>1280</dim>
					<dim>1</dim>
				</port>
			</input>
			<output>
				<port id="2" precision="FP32" names="131">
					<dim>-1</dim>
					<dim>1280</dim>
					<dim>3000</dim>
				</port>
			</output>
		</layer>
		<layer id="14" name="aten::gelu/Gelu" type="Gelu" version="opset7">
			<data approximation_mode="ERF" />
			<input>
				<port id="0" precision="FP32">
					<dim>-1</dim>
					<dim>1280</dim>
					<dim>3000</dim>
				</port>
			</input>
			<output>
				<port id="1" precision="FP32" names="73">
					<dim>-1</dim>
					<dim>1280</dim>
					<dim>3000</dim>
				</port>
			</output>
		</layer>
		<layer id="15" name="aten::gelu/Gelu/fq_output_0/input_low" type="Const" version="opset1">
			<data element_type="f32" shape="" offset="314888" size="4" />
			<output>
				<port id="0" precision="FP32" />
			</output>
		</layer>
		<layer id="16" name="aten::gelu/Gelu/fq_output_0/input_high" type="Const" version="opset1">
			<data element_type="f32" shape="" offset="314892" size="4" />
			<output>
				<port id="0" precision="FP32" />
			</output>
		</layer>
		<layer id="17" name="aten::gelu/Gelu/fq_output_0/output_low" type="Const" version="opset1">
			<data element_type="f32" shape="" offset="314888" size="4" />
			<output>
				<port id="0" precision="FP32" />
			</output>
		</layer>
		<layer id="18" name="aten::gelu/Gelu/fq_output_0/output_high" type="Const" version="opset1">
			<data element_type="f32" shape="" offset="314892" size="4" />
			<output>
				<port id="0" precision="FP32" />
			</output>
		</layer>
		<layer id="19" name="aten::gelu/Gelu/fq_output_0" type="FakeQuantize" version="opset1">
			<data levels="256" auto_broadcast="numpy" />
			<input>
				<port id="0" precision="FP32">
					<dim>-1</dim>
					<dim>1280</dim>
					<dim>3000</dim>
				</port>
				<port id="1" precision="FP32" />
				<port id="2" precision="FP32" />
				<port id="3" precision="FP32" />
				<port id="4" precision="FP32" />
			</input>
			<output>
				<port id="5" precision="FP32">
					<dim>-1</dim>
					<dim>1280</dim>
					<dim>3000</dim>
				</port>
			</output>
		</layer>
		<layer id="20" name="Constant_1707760" type="Const" version="opset1">
			<data element_type="i8" shape="1280, 1280, 3" offset="314896" size="4915200" />
			<output>
				<port id="0" precision="I8">
					<dim>1280</dim>
					<dim>1280</dim>
					<dim>3</dim>
				</port>
			</output>
		</layer>
		<layer id="21" name="Convert_1707761" type="Convert" version="opset1">
			<data destination_type="f32" />
			<input>
				<port id="0" precision="I8">
					<dim>1280</dim>
					<dim>1280</dim>
					<dim>3</dim>
				</port>
			</input>
			<output>
				<port id="1" precision="FP32">
					<dim>1280</dim>
					<dim>1280</dim>
					<dim>3</dim>
				</port>
			</output>
		</layer>
		<layer id="22" name="Constant_1707762" type="Const" version="opset1">
			<data element_type="f32" shape="1280, 1, 1" offset="5230096" size="5120" />
			<output>
				<port id="0" precision="FP32">
					<dim>1280</dim>
					<dim>1</dim>
					<dim>1</dim>
				</port>
			</output>
		</layer>
		<layer id="23" name="__module.conv2/aten::_convolution/Convolution/fq_weights_1" type="Multiply" version="opset1">
			<data auto_broadcast="numpy" />
			<input>
				<port id="0" precision="FP32">
					<dim>1280</dim>
					<dim>1280</dim>
					<dim>3</dim>
				</port>
				<port id="1" precision="FP32">
					<dim>1280</dim>
					<dim>1</dim>
					<dim>1</dim>
				</port>
			</input>
			<output>
				<port id="2" precision="FP32">
					<dim>1280</dim>
					<dim>1280</dim>
					<dim>3</dim>
				</port>
			</output>
		</layer>
		<layer id="24" name="__module.conv2/aten::_convolution/Convolution" type="Convolution" version="opset1">
			<data strides="2" dilations="1" pads_begin="1" pads_end="1" auto_pad="explicit" />
			<input>
				<port id="0" precision="FP32">
					<dim>-1</dim>
					<dim>1280</dim>
					<dim>3000</dim>
				</port>
				<port id="1" precision="FP32">
					<dim>1280</dim>
					<dim>1280</dim>
					<dim>3</dim>
				</port>
			</input>
			<output>
				<port id="2" precision="FP32">
					<dim>-1</dim>
					<dim>1280</dim>
					<dim>1500</dim>
				</port>
			</output>
		</layer>
		<layer id="25" name="__module.conv2/aten::_convolution/Reshape_compressed" type="Const" version="opset1">
			<data element_type="f16" shape="1, 1280, 1" offset="5235216" size="2560" />
			<output>
				<port id="0" precision="FP16">
					<dim>1</dim>
					<dim>1280</dim>
					<dim>1</dim>
				</port>
			</output>
		</layer>
		<layer id="26" name="__module.conv2/aten::_convolution/Reshape" type="Convert" version="opset1">
			<data destination_type="f32" />
			<rt_info>
				<attribute name="decompression" version="0" />
			</rt_info>
			<input>
				<port id="0" precision="FP16">
					<dim>1</dim>
					<dim>1280</dim>
					<dim>1</dim>
				</port>
			</input>
			<output>
				<port id="1" precision="FP32">
					<dim>1</dim>
					<dim>1280</dim>
					<dim>1</dim>
				</port>
			</output>
		</layer>
		<layer id="27" name="__module.conv2/aten::_convolution/Add" type="Add" version="opset1">
			<data auto_broadcast="numpy" />
			<input>
				<port id="0" precision="FP32">
					<dim>-1</dim>
					<dim>1280</dim>
					<dim>1500</dim>
				</port>
				<port id="1" precision="FP32">
					<dim>1</dim>
					<dim>1280</dim>
					<dim>1</dim>
				</port>
			</input>
			<output>
				<port id="2" precision="FP32" names="143">
					<dim>-1</dim>
					<dim>1280</dim>
					<dim>1500</dim>
				</port>
			</output>
		</layer>
		<layer id="28" name="aten::gelu/Gelu_1" type="Gelu" version="opset7">
			<data approximation_mode="ERF" />
			<input>
				<port id="0" precision="FP32">
					<dim>-1</dim>
					<dim>1280</dim>
					<dim>1500</dim>
				</port>
			</input>
			<output>
				<port id="1" precision="FP32" names="76,inputs_embeds.1">
					<dim>-1</dim>
					<dim>1280</dim>
					<dim>1500</dim>
				</port>
			</output>
		</layer>
		<layer id="29" name="Constant_172" type="Const" version="opset1">
			<data element_type="i64" shape="3" offset="5237776" size="24" />
			<output>
				<port id="0" precision="I64" names="80">
					<dim>3</dim>
				</port>
			</output>
		</layer>
		<layer id="30" name="aten::permute/Transpose" type="Transpose" version="opset1">
			<input>
				<port id="0" precision="FP32">
					<dim>-1</dim>
					<dim>1280</dim>
					<dim>1500</dim>
				</port>
				<port id="1" precision="I64">
					<dim>3</dim>
				</port>
			</input>
			<output>
				<port id="2" precision="FP32" names="81,inputs_embeds">
					<dim>-1</dim>
					<dim>1500</dim>
					<dim>1280</dim>
				</port>
			</output>
		</layer>
		<layer id="31" name="Constant_84528_compressed" type="Const" version="opset1">
			<data element_type="f16" shape="1, 1500, 1280" offset="5237800" size="3840000" />
			<output>
				<port id="0" precision="FP16">
					<dim>1</dim>
					<dim>1500</dim>
					<dim>1280</dim>
				</port>
			</output>
		</layer>
		<layer id="32" name="Constant_84528" type="Convert" version="opset1">
			<data destination_type="f32" />
			<rt_info>
				<attribute name="decompression" version="0" />
			</rt_info>
			<input>
				<port id="0" precision="FP16">
					<dim>1</dim>
					<dim>1500</dim>
					<dim>1280</dim>
				</port>
			</input>
			<output>
				<port id="1" precision="FP32">
					<dim>1</dim>
					<dim>1500</dim>
					<dim>1280</dim>
				</port>
			</output>
		</layer>
		<layer id="33" name="aten::add/Add" type="Add" version="opset1">
			<data auto_broadcast="numpy" />
			<input>
				<port id="0" precision="FP32">
					<dim>-1</dim>
					<dim>1500</dim>
					<dim>1280</dim>
				</port>
				<port id="1" precision="FP32">
					<dim>1</dim>
					<dim>1500</dim>
					<dim>1280</dim>
				</port>
			</input>
			<output>
				<port id="2" precision="FP32" names="83,input.1">
					<dim>-1</dim>
					<dim>1500</dim>
					<dim>1280</dim>
				</port>
			</output>
		</layer>
		<layer id="34" name="__module.layers.0.self_attn_layer_norm/aten::layer_norm/Constant" type="Const" version="opset1">
			<data element_type="i32" shape="1" offset="9077800" size="4" />
			<output>
				<port id="0" precision="I32">
					<dim>1</dim>
				</port>
			</output>
		</layer>
		<layer id="35" name="__module.layers.0.self_attn_layer_norm/aten::layer_norm/MVN" type="MVN" version="opset6">
			<data eps="9.9999997473787516e-06" normalize_variance="true" eps_mode="INSIDE_SQRT" />
			<input>
				<port id="0" precision="FP32">
					<dim>-1</dim>
					<dim>1500</dim>
					<dim>1280</dim>
				</port>
				<port id="1" precision="I32">
					<dim>1</dim>
				</port>
			</input>
			<output>
				<port id="2" precision="FP32">
					<dim>-1</dim>
					<dim>1500</dim>
					<dim>1280</dim>
				</port>
			</output>
		</layer>
		<layer id="36" name="Constant_84529_compressed" type="Const" version="opset1">
			<data element_type="f16" shape="1, 1, 1280" offset="9077804" size="2560" />
			<output>
				<port id="0" precision="FP16">
					<dim>1</dim>
					<dim>1</dim>
					<dim>1280</dim>
				</port>
			</output>
		</layer>
		<layer id="37" name="Constant_84529" type="Convert" version="opset1">
			<data destination_type="f32" />
			<rt_info>
				<attribute name="decompression" version="0" />
			</rt_info>
			<input>
				<port id="0" precision="FP16">
					<dim>1</dim>
					<dim>1</dim>
					<dim>1280</dim>
				</port>
			</input>
			<output>
				<port id="1" precision="FP32">
					<dim>1</dim>
					<dim>1</dim>
					<dim>1280</dim>
				</port>
			</output>
		</layer>
		<layer id="38" name="__module.layers.0.self_attn_layer_norm/aten::layer_norm/Multiply" type="Multiply" version="opset1">
			<data auto_broadcast="numpy" />
			<input>
				<port id="0" precision="FP32">
					<dim>-1</dim>
					<dim>1500</dim>
					<dim>1280</dim>
				</port>
				<port id="1" precision="FP32">
					<dim>1</dim>
					<dim>1</dim>
					<dim>1280</dim>
				</port>
			</input>
			<output>
				<port id="2" precision="FP32">
					<dim>-1</dim>
					<dim>1500</dim>
					<dim>1280</dim>
				</port>
			</output>
		</layer>
		<layer id="39" name="Constant_84530_compressed" type="Const" version="opset1">
			<data element_type="f16" shape="1, 1, 1280" offset="9080364" size="2560" />
			<output>
				<port id="0" precision="FP16">
					<dim>1</dim>
					<dim>1</dim>
					<dim>1280</dim>
				</port>
			</output>
		</layer>
		<layer id="40" name="Constant_84530" type="Convert" version="opset1">
			<data destination_type="f32" />
			<rt_info>
				<attribute name="decompression" version="0" />
			</rt_info>
			<input>
				<port id="0" precision="FP16">
					<dim>1</dim>
					<dim>1</dim>
					<dim>1280</dim>
				</port>
			</input>
			<output>
				<port id="1" precision="FP32">
					<dim>1</dim>
					<dim>1</dim>
					<dim>1280</dim>
				</port>
			</output>
		</layer>
		<layer id="41" name="__module.layers.0.self_attn_layer_norm/aten::layer_norm/Add" type="Add" version="opset1">
			<data auto_broadcast="numpy" />
			<input>
				<port id="0" precision="FP32">
					<dim>-1</dim>
					<dim>1500</dim>
					<dim>1280</dim>
				</port>
				<port id="1" precision="FP32">
					<dim>1</dim>
					<dim>1</dim>
					<dim>1280</dim>
				</port>
			</input>
			<output>
				<port id="2" precision="FP32" names="168,hidden_states.1">
					<dim>-1</dim>
					<dim>1500</dim>
					<dim>1280</dim>
				</port>
			</output>
		</layer>
		<layer id="42" name="__module.layers.0.self_attn_layer_norm/aten::layer_norm/Add_0_0/nncf_smooth_quant/scale" type="Const" version="opset1">
			<data element_type="f32" shape="1, 1, 1280" offset="9082924" size="5120" />
			<output>
				<port id="0" precision="FP32">
					<dim>1</dim>
					<dim>1</dim>
					<dim>1280</dim>
				</port>
			</output>
		</layer>
		<layer id="43" name="__module.layers.0.self_attn_layer_norm/aten::layer_norm/Add_0_0/nncf_smooth_quant" type="Multiply" version="opset1">
			<data auto_broadcast="numpy" />
			<input>
				<port id="0" precision="FP32">
					<dim>-1</dim>
					<dim>1500</dim>
					<dim>1280</dim>
				</port>
				<port id="1" precision="FP32">
					<dim>1</dim>
					<dim>1</dim>
					<dim>1280</dim>
				</port>
			</input>
			<output>
				<port id="2" precision="FP32">
					<dim>-1</dim>
					<dim>1500</dim>
					<dim>1280</dim>
				</port>
			</output>
		</layer>
		<layer id="44" name="__module.layers.0.self_attn_layer_norm/aten::layer_norm/Add_0_0/nncf_smooth_quant/fq_output_0/input_low" type="Const" version="opset1">
			<data element_type="f32" shape="" offset="9088044" size="4" />
			<output>
				<port id="0" precision="FP32" />
			</output>
		</layer>
		<layer id="45" name="__module.layers.0.self_attn_layer_norm/aten::layer_norm/Add_0_0/nncf_smooth_quant/fq_output_0/input_high" type="Const" version="opset1">
			<data element_type="f32" shape="" offset="9088048" size="4" />
			<output>
				<port id="0" precision="FP32" />
			</output>
		</layer>
		<layer id="46" name="__module.layers.0.self_attn_layer_norm/aten::layer_norm/Add_0_0/nncf_smooth_quant/fq_output_0/output_low" type="Const" version="opset1">
			<data element_type="f32" shape="" offset="9088044" size="4" />
			<output>
				<port id="0" precision="FP32" />
			</output>
		</layer>
		<layer id="47" name="__module.layers.0.self_attn_layer_norm/aten::layer_norm/Add_0_0/nncf_smooth_quant/fq_output_0/output_high" type="Const" version="opset1">
			<data element_type="f32" shape="" offset="9088048" size="4" />
			<output>
				<port id="0" precision="FP32" />
			</output>
		</layer>
		<layer id="48" name="__module.layers.0.self_attn_layer_norm/aten::layer_norm/Add_0_0/nncf_smooth_quant/fq_output_0" type="FakeQuantize" version="opset1">
			<data levels="256" auto_broadcast="numpy" />
			<input>
				<port id="0" precision="FP32">
					<dim>-1</dim>
					<dim>1500</dim>
					<dim>1280</dim>
				</port>
				<port id="1" precision="FP32" />
				<port id="2" precision="FP32" />
				<port id="3" precision="FP32" />
				<port id="4" precision="FP32" />
			</input>
			<output>
				<port id="5" precision="FP32">
					<dim>-1</dim>
					<dim>1500</dim>
					<dim>1280</dim>
				</port>
			</output>
		</layer>
		<layer id="49" name="Constant_1707765" type="Const" version="opset1">
			<data element_type="i8" shape="1280, 1280" offset="9088052" size="1638400" />
			<output>
				<port id="0" precision="I8">
					<dim>1280</dim>
					<dim>1280</dim>
				</port>
			</output>
		</layer>
		<layer id="50" name="Convert_1707766" type="Convert" version="opset1">
			<data destination_type="f32" />
			<input>
				<port id="0" precision="I8">
					<dim>1280</dim>
					<dim>1280</dim>
				</port>
			</input>
			<output>
				<port id="1" precision="FP32">
					<dim>1280</dim>
					<dim>1280</dim>
				</port>
			</output>
		</layer>
		<layer id="51" name="Constant_1707767" type="Const" version="opset1">
			<data element_type="f32" shape="1280, 1" offset="10726452" size="5120" />
			<output>
				<port id="0" precision="FP32">
					<dim>1280</dim>
					<dim>1</dim>
				</port>
			</output>
		</layer>
		<layer id="52" name="Multiply_83782/fq_weights_1" type="Multiply" version="opset1">
			<data auto_broadcast="numpy" />
			<input>
				<port id="0" precision="FP32">
					<dim>1280</dim>
					<dim>1280</dim>
				</port>
				<port id="1" precision="FP32">
					<dim>1280</dim>
					<dim>1</dim>
				</port>
			</input>
			<output>
				<port id="2" precision="FP32">
					<dim>1280</dim>
					<dim>1280</dim>
				</port>
			</output>
		</layer>
		<layer id="53" name="Multiply_83782" type="MatMul" version="opset1">
			<data transpose_a="false" transpose_b="true" />
			<input>
				<port id="0" precision="FP32">
					<dim>-1</dim>
					<dim>1500</dim>
					<dim>1280</dim>
				</port>
				<port id="1" precision="FP32">
					<dim>1280</dim>
					<dim>1280</dim>
				</port>
			</input>
			<output>
				<port id="2" precision="FP32">
					<dim>-1</dim>
					<dim>1500</dim>
					<dim>1280</dim>
				</port>
			</output>
		</layer>
		<layer id="54" name="Constant_84531_compressed" type="Const" version="opset1">
			<data element_type="f16" shape="1, 1, 1280" offset="10731572" size="2560" />
			<output>
				<port id="0" precision="FP16">
					<dim>1</dim>
					<dim>1</dim>
					<dim>1280</dim>
				</port>
			</output>
		</layer>
		<layer id="55" name="Constant_84531" type="Convert" version="opset1">
			<data destination_type="f32" />
			<rt_info>
				<attribute name="decompression" version="0" />
			</rt_info>
			<input>
				<port id="0" precision="FP16">
					<dim>1</dim>
					<dim>1</dim>
					<dim>1280</dim>
				</port>
			</input>
			<output>
				<port id="1" precision="FP32">
					<dim>1</dim>
					<dim>1</dim>
					<dim>1280</dim>
				</port>
			</output>
		</layer>
		<layer id="56" name="__module.layers.0.self_attn/aten::mul/Multiply" type="Add" version="opset1">
			<data auto_broadcast="numpy" />
			<input>
				<port id="0" precision="FP32">
					<dim>-1</dim>
					<dim>1500</dim>
					<dim>1280</dim>
				</port>
				<port id="1" precision="FP32">
					<dim>1</dim>
					<dim>1</dim>
					<dim>1280</dim>
				</port>
			</input>
			<output>
				<port id="2" precision="FP32" names="179,tensor.5">
					<dim>-1</dim>
					<dim>1500</dim>
					<dim>1280</dim>
				</port>
			</output>
		</layer>
		<layer id="57" name="__module.layers.0.self_attn/aten::mul/Multiply/fq_output_0/input_low" type="Const" version="opset1">
			<data element_type="f32" shape="" offset="10734132" size="4" />
			<output>
				<port id="0" precision="FP32" />
			</output>
		</layer>
		<layer id="58" name="__module.layers.0.self_attn/aten::mul/Multiply/fq_output_0/input_high" type="Const" version="opset1">
			<data element_type="f32" shape="" offset="10734136" size="4" />
			<output>
				<port id="0" precision="FP32" />
			</output>
		</layer>
		<layer id="59" name="__module.layers.0.self_attn/aten::mul/Multiply/fq_output_0/output_low" type="Const" version="opset1">
			<data element_type="f32" shape="" offset="10734132" size="4" />
			<output>
				<port id="0" precision="FP32" />
			</output>
		</layer>
		<layer id="60" name="__module.layers.0.self_attn/aten::mul/Multiply/fq_output_0/output_high" type="Const" version="opset1">
			<data element_type="f32" shape="" offset="10734136" size="4" />
			<output>
				<port id="0" precision="FP32" />
			</output>
		</layer>
		<layer id="61" name="__module.layers.0.self_attn/aten::mul/Multiply/fq_output_0" type="FakeQuantize" version="opset1">
			<data levels="256" auto_broadcast="numpy" />
			<input>
				<port id="0" precision="FP32">
					<dim>-1</dim>
					<dim>1500</dim>
					<dim>1280</dim>
				</port>
				<port id="1" precision="FP32" />
				<port id="2" precision="FP32" />
				<port id="3" precision="FP32" />
				<port id="4" precision="FP32" />
			</input>
			<output>
				<port id="5" precision="FP32">
					<dim>-1</dim>
					<dim>1500</dim>
					<dim>1280</dim>
				</port>
			</output>
		</layer>
		<layer id="62" name="__module.layers.0.self_attn/aten::size/ShapeOf" type="ShapeOf" version="opset3">
			<data output_type="i64" />
			<input>
				<port id="0" precision="FP32">
					<dim>-1</dim>
					<dim>1500</dim>
					<dim>1280</dim>
				</port>
			</input>
			<output>
				<port id="1" precision="I64">
					<dim>3</dim>
				</port>
			</output>
		</layer>
		<layer id="63" name="Constant_145282" type="Const" version="opset1">
			<data element_type="i64" shape="1" offset="10734140" size="8" />
			<rt_info>
				<attribute name="precise" version="0" />
			</rt_info>
			<output>
				<port id="0" precision="I64">
					<dim>1</dim>
				</port>
			</output>
		</layer>
		<layer id="64" name="__module.layers.0.self_attn/aten::size/Constant" type="Const" version="opset1">
			<data element_type="i32" shape="" offset="10734148" size="4" />
			<rt_info>
				<attribute name="precise" version="0" />
			</rt_info>
			<output>
				<port id="0" precision="I32" />
			</output>
		</layer>
		<layer id="65" name="__module.layers.0.self_attn/aten::size/Gather" type="Gather" version="opset8">
			<data batch_dims="0" />
			<input>
				<port id="0" precision="I64">
					<dim>3</dim>
				</port>
				<port id="1" precision="I64">
					<dim>1</dim>
				</port>
				<port id="2" precision="I32" />
			</input>
			<output>
				<port id="3" precision="I64" names="173">
					<dim>1</dim>
				</port>
			</output>
		</layer>
		<layer id="66" name="__module.layers.0.self_attn/prim::ListConstruct/Reshape_0" type="Const" version="opset1">
			<data element_type="i64" shape="1" offset="10734152" size="8" />
			<rt_info>
				<attribute name="precise" version="0" />
			</rt_info>
			<output>
				<port id="0" precision="I64">
					<dim>1</dim>
				</port>
			</output>
		</layer>
		<layer id="67" name="__module.layers.0.self_attn/prim::ListConstruct/Reshape_1" type="Const" version="opset1">
			<data element_type="i64" shape="1" offset="10734160" size="8" />
			<rt_info>
				<attribute name="precise" version="0" />
			</rt_info>
			<output>
				<port id="0" precision="I64">
					<dim>1</dim>
				</port>
			</output>
		</layer>
		<layer id="68" name="__module.layers.0.self_attn/prim::ListConstruct/Reshape_2" type="Const" version="opset1">
			<data element_type="i64" shape="1" offset="10734168" size="8" />
			<rt_info>
				<attribute name="precise" version="0" />
			</rt_info>
			<output>
				<port id="0" precision="I64">
					<dim>1</dim>
				</port>
			</output>
		</layer>
		<layer id="69" name="__module.layers.0.self_attn/prim::ListConstruct/Concat" type="Concat" version="opset1">
			<data axis="0" />
			<input>
				<port id="0" precision="I64">
					<dim>1</dim>
				</port>
				<port id="1" precision="I64">
					<dim>1</dim>
				</port>
				<port id="2" precision="I64">
					<dim>1</dim>
				</port>
				<port id="3" precision="I64">
					<dim>1</dim>
				</port>
			</input>
			<output>
				<port id="4" precision="I64" names="197">
					<dim>4</dim>
				</port>
			</output>
		</layer>
		<layer id="70" name="__module.layers.0.self_attn/aten::view/Reshape" type="Reshape" version="opset1">
			<data special_zero="false" />
			<input>
				<port id="0" precision="FP32">
					<dim>-1</dim>
					<dim>1500</dim>
					<dim>1280</dim>
				</port>
				<port id="1" precision="I64">
					<dim>4</dim>
				</port>
			</input>
			<output>
				<port id="2" precision="FP32" names="198">
					<dim>-1</dim>
					<dim>1500</dim>
					<dim>20</dim>
					<dim>64</dim>
				</port>
			</output>
		</layer>
		<layer id="71" name="__module.layers.0.self_attn/aten::transpose/ScatterElementsUpdate" type="Const" version="opset1">
			<data element_type="i32" shape="4" offset="10734176" size="16" />
			<output>
				<port id="0" precision="I32">
					<dim>4</dim>
				</port>
			</output>
		</layer>
		<layer id="72" name="__module.layers.0.self_attn/aten::transpose/Transpose" type="Transpose" version="opset1">
			<input>
				<port id="0" precision="FP32">
					<dim>-1</dim>
					<dim>1500</dim>
					<dim>20</dim>
					<dim>64</dim>
				</port>
				<port id="1" precision="I32">
					<dim>4</dim>
				</port>
			</input>
			<output>
				<port id="2" precision="FP32" names="199">
					<dim>-1</dim>
					<dim>20</dim>
					<dim>1500</dim>
					<dim>64</dim>
				</port>
			</output>
		</layer>
		<layer id="73" name="Constant_145186" type="Const" version="opset1">
			<data element_type="i64" shape="1" offset="10734160" size="8" />
			<rt_info>
				<attribute name="precise" version="0" />
			</rt_info>
			<output>
				<port id="0" precision="I64">
					<dim>1</dim>
				</port>
			</output>
		</layer>
		<layer id="74" name="__module.layers.0.self_attn/aten::mul/Multiply_1" type="Multiply" version="opset1">
			<data auto_broadcast="numpy" />
			<input>
				<port id="0" precision="I64">
					<dim>1</dim>
				</port>
				<port id="1" precision="I64">
					<dim>1</dim>
				</port>
			</input>
			<output>
				<port id="2" precision="I64" names="193,194,195,196">
					<dim>1</dim>
				</port>
			</output>
		</layer>
		<layer id="75" name="__module.layers.0.self_attn/prim::ListConstruct/Reshape_0_1" type="Const" version="opset1">
			<data element_type="i64" shape="1" offset="10734192" size="8" />
			<rt_info>
				<attribute name="precise" version="0" />
			</rt_info>
			<output>
				<port id="0" precision="I64">
					<dim>1</dim>
				</port>
			</output>
		</layer>
		<layer id="76" name="__module.layers.0.self_attn/prim::ListConstruct/Concat_1" type="Concat" version="opset1">
			<data axis="0" />
			<input>
				<port id="0" precision="I64">
					<dim>1</dim>
				</port>
				<port id="1" precision="I64">
					<dim>1</dim>
				</port>
				<port id="2" precision="I64">
					<dim>1</dim>
				</port>
			</input>
			<output>
				<port id="3" precision="I64" names="201,203,205">
					<dim>3</dim>
				</port>
			</output>
		</layer>
		<layer id="77" name="__module.layers.0.self_attn/aten::view/Reshape_1" type="Reshape" version="opset1">
			<data special_zero="false" />
			<input>
				<port id="0" precision="FP32">
					<dim>-1</dim>
					<dim>20</dim>
					<dim>1500</dim>
					<dim>64</dim>
				</port>
				<port id="1" precision="I64">
					<dim>3</dim>
				</port>
			</input>
			<output>
				<port id="2" precision="FP32" names="202">
					<dim>-1</dim>
					<dim>-1</dim>
					<dim>64</dim>
				</port>
			</output>
		</layer>
		<layer id="78" name="Constant_1707770" type="Const" version="opset1">
			<data element_type="i8" shape="1280, 1280" offset="10734200" size="1638400" />
			<output>
				<port id="0" precision="I8">
					<dim>1280</dim>
					<dim>1280</dim>
				</port>
			</output>
		</layer>
		<layer id="79" name="Convert_1707771" type="Convert" version="opset1">
			<data destination_type="f32" />
			<input>
				<port id="0" precision="I8">
					<dim>1280</dim>
					<dim>1280</dim>
				</port>
			</input>
			<output>
				<port id="1" precision="FP32">
					<dim>1280</dim>
					<dim>1280</dim>
				</port>
			</output>
		</layer>
		<layer id="80" name="Constant_1707772" type="Const" version="opset1">
			<data element_type="f32" shape="1280, 1" offset="12372600" size="5120" />
			<output>
				<port id="0" precision="FP32">
					<dim>1280</dim>
					<dim>1</dim>
				</port>
			</output>
		</layer>
		<layer id="81" name="__module.layers.0.self_attn.k_proj/aten::linear/MatMul/fq_weights_1" type="Multiply" version="opset1">
			<data auto_broadcast="numpy" />
			<input>
				<port id="0" precision="FP32">
					<dim>1280</dim>
					<dim>1280</dim>
				</port>
				<port id="1" precision="FP32">
					<dim>1280</dim>
					<dim>1</dim>
				</port>
			</input>
			<output>
				<port id="2" precision="FP32">
					<dim>1280</dim>
					<dim>1280</dim>
				</port>
			</output>
		</layer>
		<layer id="82" name="__module.layers.0.self_attn.k_proj/aten::linear/MatMul" type="MatMul" version="opset1">
			<data transpose_a="false" transpose_b="true" />
			<input>
				<port id="0" precision="FP32">
					<dim>-1</dim>
					<dim>1500</dim>
					<dim>1280</dim>
				</port>
				<port id="1" precision="FP32">
					<dim>1280</dim>
					<dim>1280</dim>
				</port>
			</input>
			<output>
				<port id="2" precision="FP32" names="181,tensor.1">
					<dim>-1</dim>
					<dim>1500</dim>
					<dim>1280</dim>
				</port>
			</output>
		</layer>
		<layer id="83" name="__module.layers.0.self_attn.k_proj/aten::linear/MatMul/fq_output_0/input_low" type="Const" version="opset1">
			<data element_type="f32" shape="" offset="12377720" size="4" />
			<output>
				<port id="0" precision="FP32" />
			</output>
		</layer>
		<layer id="84" name="__module.layers.0.self_attn.k_proj/aten::linear/MatMul/fq_output_0/input_high" type="Const" version="opset1">
			<data element_type="f32" shape="" offset="12377724" size="4" />
			<output>
				<port id="0" precision="FP32" />
			</output>
		</layer>
		<layer id="85" name="__module.layers.0.self_attn.k_proj/aten::linear/MatMul/fq_output_0/output_low" type="Const" version="opset1">
			<data element_type="f32" shape="" offset="12377720" size="4" />
			<output>
				<port id="0" precision="FP32" />
			</output>
		</layer>
		<layer id="86" name="__module.layers.0.self_attn.k_proj/aten::linear/MatMul/fq_output_0/output_high" type="Const" version="opset1">
			<data element_type="f32" shape="" offset="12377724" size="4" />
			<output>
				<port id="0" precision="FP32" />
			</output>
		</layer>
		<layer id="87" name="__module.layers.0.self_attn.k_proj/aten::linear/MatMul/fq_output_0" type="FakeQuantize" version="opset1">
			<data levels="256" auto_broadcast="numpy" />
			<input>
				<port id="0" precision="FP32">
					<dim>-1</dim>
					<dim>1500</dim>
					<dim>1280</dim>
				</port>
				<port id="1" precision="FP32" />
				<port id="2" precision="FP32" />
				<port id="3" precision="FP32" />
				<port id="4" precision="FP32" />
			</input>
			<output>
				<port id="5" precision="FP32">
					<dim>-1</dim>
					<dim>1500</dim>
					<dim>1280</dim>
				</port>
			</output>
		</layer>
		<layer id="88" name="__module.layers.0.self_attn/prim::ListConstruct/Concat_2" type="Concat" version="opset1">
			<data axis="0" />
			<input>
				<port id="0" precision="I64">
					<dim>1</dim>
				</port>
				<port id="1" precision="I64">
					<dim>1</dim>
				</port>
				<port id="2" precision="I64">
					<dim>1</dim>
				</port>
				<port id="3" precision="I64">
					<dim>1</dim>
				</port>
			</input>
			<output>
				<port id="4" precision="I64" names="182,189">
					<dim>4</dim>
				</port>
			</output>
		</layer>
		<layer id="89" name="__module.layers.0.self_attn/aten::view/Reshape_2" type="Reshape" version="opset1">
			<data special_zero="false" />
			<input>
				<port id="0" precision="FP32">
					<dim>-1</dim>
					<dim>1500</dim>
					<dim>1280</dim>
				</port>
				<port id="1" precision="I64">
					<dim>4</dim>
				</port>
			</input>
			<output>
				<port id="2" precision="FP32" names="183">
					<dim>-1</dim>
					<dim>-1</dim>
					<dim>20</dim>
					<dim>64</dim>
				</port>
			</output>
		</layer>
		<layer id="90" name="__module.layers.0.self_attn/aten::transpose/ScatterElementsUpdate_1" type="Const" version="opset1">
			<data element_type="i32" shape="4" offset="10734176" size="16" />
			<output>
				<port id="0" precision="I32">
					<dim>4</dim>
				</port>
			</output>
		</layer>
		<layer id="91" name="__module.layers.0.self_attn/aten::transpose/Transpose_1" type="Transpose" version="opset1">
			<input>
				<port id="0" precision="FP32">
					<dim>-1</dim>
					<dim>-1</dim>
					<dim>20</dim>
					<dim>64</dim>
				</port>
				<port id="1" precision="I32">
					<dim>4</dim>
				</port>
			</input>
			<output>
				<port id="2" precision="FP32" names="184">
					<dim>-1</dim>
					<dim>20</dim>
					<dim>-1</dim>
					<dim>64</dim>
				</port>
			</output>
		</layer>
		<layer id="92" name="__module.layers.0.self_attn/aten::reshape/Reshape" type="Reshape" version="opset1">
			<data special_zero="false" />
			<input>
				<port id="0" precision="FP32">
					<dim>-1</dim>
					<dim>20</dim>
					<dim>-1</dim>
					<dim>64</dim>
				</port>
				<port id="1" precision="I64">
					<dim>3</dim>
				</port>
			</input>
			<output>
				<port id="2" precision="FP32" names="204,key_states.3">
					<dim>-1</dim>
					<dim>-1</dim>
					<dim>64</dim>
				</port>
			</output>
		</layer>
		<layer id="93" name="__module.layers.0.self_attn/aten::bmm/MatMul" type="MatMul" version="opset1">
			<data transpose_a="false" transpose_b="true" />
			<input>
				<port id="0" precision="FP32">
					<dim>-1</dim>
					<dim>-1</dim>
					<dim>64</dim>
				</port>
				<port id="1" precision="FP32">
					<dim>-1</dim>
					<dim>-1</dim>
					<dim>64</dim>
				</port>
			</input>
			<output>
				<port id="2" precision="FP32" names="208,attn_weights.1">
					<dim>-1</dim>
					<dim>-1</dim>
					<dim>-1</dim>
				</port>
			</output>
		</layer>
		<layer id="94" name="__module.layers.0.self_attn/aten::softmax/Softmax" type="SoftMax" version="opset8">
			<data axis="-1" />
			<input>
				<port id="0" precision="FP32">
					<dim>-1</dim>
					<dim>-1</dim>
					<dim>-1</dim>
				</port>
			</input>
			<output>
				<port id="1" precision="FP32" names="209,input.3">
					<dim>-1</dim>
					<dim>-1</dim>
					<dim>-1</dim>
				</port>
			</output>
		</layer>
		<layer id="95" name="Constant_1707775" type="Const" version="opset1">
			<data element_type="i8" shape="1280, 1280" offset="12377728" size="1638400" />
			<output>
				<port id="0" precision="I8">
					<dim>1280</dim>
					<dim>1280</dim>
				</port>
			</output>
		</layer>
		<layer id="96" name="Convert_1707776" type="Convert" version="opset1">
			<data destination_type="f32" />
			<input>
				<port id="0" precision="I8">
					<dim>1280</dim>
					<dim>1280</dim>
				</port>
			</input>
			<output>
				<port id="1" precision="FP32">
					<dim>1280</dim>
					<dim>1280</dim>
				</port>
			</output>
		</layer>
		<layer id="97" name="Constant_1707777" type="Const" version="opset1">
			<data element_type="f32" shape="1280, 1" offset="14016128" size="5120" />
			<output>
				<port id="0" precision="FP32">
					<dim>1280</dim>
					<dim>1</dim>
				</port>
			</output>
		</layer>
		<layer id="98" name="__module.layers.0.self_attn.v_proj/aten::linear/MatMul/fq_weights_1" type="Multiply" version="opset1">
			<data auto_broadcast="numpy" />
			<input>
				<port id="0" precision="FP32">
					<dim>1280</dim>
					<dim>1280</dim>
				</port>
				<port id="1" precision="FP32">
					<dim>1280</dim>
					<dim>1</dim>
				</port>
			</input>
			<output>
				<port id="2" precision="FP32">
					<dim>1280</dim>
					<dim>1280</dim>
				</port>
			</output>
		</layer>
		<layer id="99" name="__module.layers.0.self_attn.v_proj/aten::linear/MatMul" type="MatMul" version="opset1">
			<data transpose_a="false" transpose_b="true" />
			<input>
				<port id="0" precision="FP32">
					<dim>-1</dim>
					<dim>1500</dim>
					<dim>1280</dim>
				</port>
				<port id="1" precision="FP32">
					<dim>1280</dim>
					<dim>1280</dim>
				</port>
			</input>
			<output>
				<port id="2" precision="FP32">
					<dim>-1</dim>
					<dim>1500</dim>
					<dim>1280</dim>
				</port>
			</output>
		</layer>
		<layer id="100" name="Constant_84532_compressed" type="Const" version="opset1">
			<data element_type="f16" shape="1, 1, 1280" offset="14021248" size="2560" />
			<output>
				<port id="0" precision="FP16">
					<dim>1</dim>
					<dim>1</dim>
					<dim>1280</dim>
				</port>
			</output>
		</layer>
		<layer id="101" name="Constant_84532" type="Convert" version="opset1">
			<data destination_type="f32" />
			<rt_info>
				<attribute name="decompression" version="0" />
			</rt_info>
			<input>
				<port id="0" precision="FP16">
					<dim>1</dim>
					<dim>1</dim>
					<dim>1280</dim>
				</port>
			</input>
			<output>
				<port id="1" precision="FP32">
					<dim>1</dim>
					<dim>1</dim>
					<dim>1280</dim>
				</port>
			</output>
		</layer>
		<layer id="102" name="__module.layers.0.self_attn.v_proj/aten::linear/Add" type="Add" version="opset1">
			<data auto_broadcast="numpy" />
			<input>
				<port id="0" precision="FP32">
					<dim>-1</dim>
					<dim>1500</dim>
					<dim>1280</dim>
				</port>
				<port id="1" precision="FP32">
					<dim>1</dim>
					<dim>1</dim>
					<dim>1280</dim>
				</port>
			</input>
			<output>
				<port id="2" precision="FP32" names="188,tensor.3">
					<dim>-1</dim>
					<dim>1500</dim>
					<dim>1280</dim>
				</port>
			</output>
		</layer>
		<layer id="103" name="__module.layers.0.self_attn/aten::view/Reshape_3" type="Reshape" version="opset1">
			<data special_zero="false" />
			<input>
				<port id="0" precision="FP32">
					<dim>-1</dim>
					<dim>1500</dim>
					<dim>1280</dim>
				</port>
				<port id="1" precision="I64">
					<dim>4</dim>
				</port>
			</input>
			<output>
				<port id="2" precision="FP32" names="190">
					<dim>-1</dim>
					<dim>-1</dim>
					<dim>20</dim>
					<dim>64</dim>
				</port>
			</output>
		</layer>
		<layer id="104" name="__module.layers.0.self_attn/aten::transpose/ScatterElementsUpdate_3" type="Const" version="opset1">
			<data element_type="i32" shape="4" offset="10734176" size="16" />
			<output>
				<port id="0" precision="I32">
					<dim>4</dim>
				</port>
			</output>
		</layer>
		<layer id="105" name="__module.layers.0.self_attn/aten::transpose/Transpose_3" type="Transpose" version="opset1">
			<input>
				<port id="0" precision="FP32">
					<dim>-1</dim>
					<dim>-1</dim>
					<dim>20</dim>
					<dim>64</dim>
				</port>
				<port id="1" precision="I32">
					<dim>4</dim>
				</port>
			</input>
			<output>
				<port id="2" precision="FP32" names="191">
					<dim>-1</dim>
					<dim>20</dim>
					<dim>-1</dim>
					<dim>64</dim>
				</port>
			</output>
		</layer>
		<layer id="106" name="__module.layers.0.self_attn/aten::reshape/Reshape_1" type="Reshape" version="opset1">
			<data special_zero="false" />
			<input>
				<port id="0" precision="FP32">
					<dim>-1</dim>
					<dim>20</dim>
					<dim>-1</dim>
					<dim>64</dim>
				</port>
				<port id="1" precision="I64">
					<dim>3</dim>
				</port>
			</input>
			<output>
				<port id="2" precision="FP32" names="206">
					<dim>-1</dim>
					<dim>-1</dim>
					<dim>64</dim>
				</port>
			</output>
		</layer>
		<layer id="107" name="__module.layers.0.self_attn/aten::bmm/MatMul_1" type="MatMul" version="opset1">
			<data transpose_a="false" transpose_b="false" />
			<input>
				<port id="0" precision="FP32">
					<dim>-1</dim>
					<dim>-1</dim>
					<dim>-1</dim>
				</port>
				<port id="1" precision="FP32">
					<dim>-1</dim>
					<dim>-1</dim>
					<dim>64</dim>
				</port>
			</input>
			<output>
				<port id="2" precision="FP32" names="211,attn_output.1">
					<dim>-1</dim>
					<dim>-1</dim>
					<dim>64</dim>
				</port>
			</output>
		</layer>
		<layer id="108" name="__module.layers.0.self_attn/prim::ListConstruct/Concat_6" type="Concat" version="opset1">
			<data axis="0" />
			<input>
				<port id="0" precision="I64">
					<dim>1</dim>
				</port>
				<port id="1" precision="I64">
					<dim>1</dim>
				</port>
				<port id="2" precision="I64">
					<dim>1</dim>
				</port>
				<port id="3" precision="I64">
					<dim>1</dim>
				</port>
			</input>
			<output>
				<port id="4" precision="I64" names="212">
					<dim>4</dim>
				</port>
			</output>
		</layer>
		<layer id="109" name="__module.layers.0.self_attn/aten::view/Reshape_4" type="Reshape" version="opset1">
			<data special_zero="false" />
			<input>
				<port id="0" precision="FP32">
					<dim>-1</dim>
					<dim>-1</dim>
					<dim>64</dim>
				</port>
				<port id="1" precision="I64">
					<dim>4</dim>
				</port>
			</input>
			<output>
				<port id="2" precision="FP32" names="213,attn_output.3">
					<dim>-1</dim>
					<dim>20</dim>
					<dim>1500</dim>
					<dim>64</dim>
				</port>
			</output>
		</layer>
		<layer id="110" name="__module.layers.0.self_attn/aten::transpose/ScatterElementsUpdate_4" type="Const" version="opset1">
			<data element_type="i32" shape="4" offset="10734176" size="16" />
			<output>
				<port id="0" precision="I32">
					<dim>4</dim>
				</port>
			</output>
		</layer>
		<layer id="111" name="__module.layers.0.self_attn/aten::transpose/Transpose_4" type="Transpose" version="opset1">
			<input>
				<port id="0" precision="FP32">
					<dim>-1</dim>
					<dim>20</dim>
					<dim>1500</dim>
					<dim>64</dim>
				</port>
				<port id="1" precision="I32">
					<dim>4</dim>
				</port>
			</input>
			<output>
				<port id="2" precision="FP32" names="214,attn_output.5">
					<dim>-1</dim>
					<dim>1500</dim>
					<dim>20</dim>
					<dim>64</dim>
				</port>
			</output>
		</layer>
		<layer id="112" name="__module.layers.0.self_attn/prim::ListConstruct/Reshape_1_7" type="Const" version="opset1">
			<data element_type="i64" shape="1" offset="14023808" size="8" />
			<rt_info>
				<attribute name="precise" version="0" />
			</rt_info>
			<output>
				<port id="0" precision="I64">
					<dim>1</dim>
				</port>
			</output>
		</layer>
		<layer id="113" name="__module.layers.0.self_attn/prim::ListConstruct/Concat_7" type="Concat" version="opset1">
			<data axis="0" />
			<input>
				<port id="0" precision="I64">
					<dim>1</dim>
				</port>
				<port id="1" precision="I64">
					<dim>1</dim>
				</port>
				<port id="2" precision="I64">
					<dim>1</dim>
				</port>
			</input>
			<output>
				<port id="3" precision="I64" names="215">
					<dim>3</dim>
				</port>
			</output>
		</layer>
		<layer id="114" name="__module.layers.0.self_attn/aten::reshape/Reshape_2" type="Reshape" version="opset1">
			<data special_zero="false" />
			<input>
				<port id="0" precision="FP32">
					<dim>-1</dim>
					<dim>1500</dim>
					<dim>20</dim>
					<dim>64</dim>
				</port>
				<port id="1" precision="I64">
					<dim>3</dim>
				</port>
			</input>
			<output>
				<port id="2" precision="FP32" names="216">
					<dim>-1</dim>
					<dim>1500</dim>
					<dim>1280</dim>
				</port>
			</output>
		</layer>
		<layer id="115" name="__module.layers.0.self_attn/aten::reshape/Reshape_2_0_0/nncf_smooth_quant/scale" type="Const" version="opset1">
			<data element_type="f32" shape="1, 1, 1280" offset="14023816" size="5120" />
			<output>
				<port id="0" precision="FP32">
					<dim>1</dim>
					<dim>1</dim>
					<dim>1280</dim>
				</port>
			</output>
		</layer>
		<layer id="116" name="__module.layers.0.self_attn/aten::reshape/Reshape_2_0_0/nncf_smooth_quant" type="Multiply" version="opset1">
			<data auto_broadcast="numpy" />
			<input>
				<port id="0" precision="FP32">
					<dim>-1</dim>
					<dim>1500</dim>
					<dim>1280</dim>
				</port>
				<port id="1" precision="FP32">
					<dim>1</dim>
					<dim>1</dim>
					<dim>1280</dim>
				</port>
			</input>
			<output>
				<port id="2" precision="FP32">
					<dim>-1</dim>
					<dim>1500</dim>
					<dim>1280</dim>
				</port>
			</output>
		</layer>
		<layer id="117" name="__module.layers.0.self_attn/aten::reshape/Reshape_2_0_0/nncf_smooth_quant/fq_output_0/input_low" type="Const" version="opset1">
			<data element_type="f32" shape="" offset="14028936" size="4" />
			<output>
				<port id="0" precision="FP32" />
			</output>
		</layer>
		<layer id="118" name="__module.layers.0.self_attn/aten::reshape/Reshape_2_0_0/nncf_smooth_quant/fq_output_0/input_high" type="Const" version="opset1">
			<data element_type="f32" shape="" offset="14028940" size="4" />
			<output>
				<port id="0" precision="FP32" />
			</output>
		</layer>
		<layer id="119" name="__module.layers.0.self_attn/aten::reshape/Reshape_2_0_0/nncf_smooth_quant/fq_output_0/output_low" type="Const" version="opset1">
			<data element_type="f32" shape="" offset="14028936" size="4" />
			<output>
				<port id="0" precision="FP32" />
			</output>
		</layer>
		<layer id="120" name="__module.layers.0.self_attn/aten::reshape/Reshape_2_0_0/nncf_smooth_quant/fq_output_0/output_high" type="Const" version="opset1">
			<data element_type="f32" shape="" offset="14028940" size="4" />
			<output>
				<port id="0" precision="FP32" />
			</output>
		</layer>
		<layer id="121" name="__module.layers.0.self_attn/aten::reshape/Reshape_2_0_0/nncf_smooth_quant/fq_output_0" type="FakeQuantize" version="opset1">
			<data levels="256" auto_broadcast="numpy" />
			<input>
				<port id="0" precision="FP32">
					<dim>-1</dim>
					<dim>1500</dim>
					<dim>1280</dim>
				</port>
				<port id="1" precision="FP32" />
				<port id="2" precision="FP32" />
				<port id="3" precision="FP32" />
				<port id="4" precision="FP32" />
			</input>
			<output>
				<port id="5" precision="FP32">
					<dim>-1</dim>
					<dim>1500</dim>
					<dim>1280</dim>
				</port>
			</output>
		</layer>
		<layer id="122" name="Constant_1707780" type="Const" version="opset1">
			<data element_type="i8" shape="1280, 1280" offset="14028944" size="1638400" />
			<output>
				<port id="0" precision="I8">
					<dim>1280</dim>
					<dim>1280</dim>
				</port>
			</output>
		</layer>
		<layer id="123" name="Convert_1707781" type="Convert" version="opset1">
			<data destination_type="f32" />
			<input>
				<port id="0" precision="I8">
					<dim>1280</dim>
					<dim>1280</dim>
				</port>
			</input>
			<output>
				<port id="1" precision="FP32">
					<dim>1280</dim>
					<dim>1280</dim>
				</port>
			</output>
		</layer>
		<layer id="124" name="Constant_1707782" type="Const" version="opset1">
			<data element_type="f32" shape="1280, 1" offset="15667344" size="5120" />
			<output>
				<port id="0" precision="FP32">
					<dim>1280</dim>
					<dim>1</dim>
				</port>
			</output>
		</layer>
		<layer id="125" name="__module.layers.0.self_attn.out_proj/aten::linear/MatMul/fq_weights_1" type="Multiply" version="opset1">
			<data auto_broadcast="numpy" />
			<input>
				<port id="0" precision="FP32">
					<dim>1280</dim>
					<dim>1280</dim>
				</port>
				<port id="1" precision="FP32">
					<dim>1280</dim>
					<dim>1</dim>
				</port>
			</input>
			<output>
				<port id="2" precision="FP32">
					<dim>1280</dim>
					<dim>1280</dim>
				</port>
			</output>
		</layer>
		<layer id="126" name="__module.layers.0.self_attn.out_proj/aten::linear/MatMul" type="MatMul" version="opset1">
			<data transpose_a="false" transpose_b="true" />
			<input>
				<port id="0" precision="FP32">
					<dim>-1</dim>
					<dim>1500</dim>
					<dim>1280</dim>
				</port>
				<port id="1" precision="FP32">
					<dim>1280</dim>
					<dim>1280</dim>
				</port>
			</input>
			<output>
				<port id="2" precision="FP32">
					<dim>-1</dim>
					<dim>1500</dim>
					<dim>1280</dim>
				</port>
			</output>
		</layer>
		<layer id="127" name="Constant_84533_compressed" type="Const" version="opset1">
			<data element_type="f16" shape="1, 1, 1280" offset="15672464" size="2560" />
			<output>
				<port id="0" precision="FP16">
					<dim>1</dim>
					<dim>1</dim>
					<dim>1280</dim>
				</port>
			</output>
		</layer>
		<layer id="128" name="Constant_84533" type="Convert" version="opset1">
			<data destination_type="f32" />
			<rt_info>
				<attribute name="decompression" version="0" />
			</rt_info>
			<input>
				<port id="0" precision="FP16">
					<dim>1</dim>
					<dim>1</dim>
					<dim>1280</dim>
				</port>
			</input>
			<output>
				<port id="1" precision="FP32">
					<dim>1</dim>
					<dim>1</dim>
					<dim>1280</dim>
				</port>
			</output>
		</layer>
		<layer id="129" name="__module.layers.0.self_attn.out_proj/aten::linear/Add" type="Add" version="opset1">
			<data auto_broadcast="numpy" />
			<input>
				<port id="0" precision="FP32">
					<dim>-1</dim>
					<dim>1500</dim>
					<dim>1280</dim>
				</port>
				<port id="1" precision="FP32">
					<dim>1</dim>
					<dim>1</dim>
					<dim>1280</dim>
				</port>
			</input>
			<output>
				<port id="2" precision="FP32" names="219,input.5">
					<dim>-1</dim>
					<dim>1500</dim>
					<dim>1280</dim>
				</port>
			</output>
		</layer>
		<layer id="130" name="__module.layers.0/aten::add/Add" type="Add" version="opset1">
			<data auto_broadcast="numpy" />
			<input>
				<port id="0" precision="FP32">
					<dim>-1</dim>
					<dim>1500</dim>
					<dim>1280</dim>
				</port>
				<port id="1" precision="FP32">
					<dim>-1</dim>
					<dim>1500</dim>
					<dim>1280</dim>
				</port>
			</input>
			<output>
				<port id="2" precision="FP32" names="221,residual.3">
					<dim>-1</dim>
					<dim>1500</dim>
					<dim>1280</dim>
				</port>
			</output>
		</layer>
		<layer id="131" name="__module.layers.0.final_layer_norm/aten::layer_norm/Constant" type="Const" version="opset1">
			<data element_type="i32" shape="1" offset="9077800" size="4" />
			<output>
				<port id="0" precision="I32">
					<dim>1</dim>
				</port>
			</output>
		</layer>
		<layer id="132" name="__module.layers.0.final_layer_norm/aten::layer_norm/MVN" type="MVN" version="opset6">
			<data eps="9.9999997473787516e-06" normalize_variance="true" eps_mode="INSIDE_SQRT" />
			<input>
				<port id="0" precision="FP32">
					<dim>-1</dim>
					<dim>1500</dim>
					<dim>1280</dim>
				</port>
				<port id="1" precision="I32">
					<dim>1</dim>
				</port>
			</input>
			<output>
				<port id="2" precision="FP32">
					<dim>-1</dim>
					<dim>1500</dim>
					<dim>1280</dim>
				</port>
			</output>
		</layer>
		<layer id="133" name="Constant_84534_compressed" type="Const" version="opset1">
			<data element_type="f16" shape="1, 1, 1280" offset="15675024" size="2560" />
			<output>
				<port id="0" precision="FP16">
					<dim>1</dim>
					<dim>1</dim>
					<dim>1280</dim>
				</port>
			</output>
		</layer>
		<layer id="134" name="Constant_84534" type="Convert" version="opset1">
			<data destination_type="f32" />
			<rt_info>
				<attribute name="decompression" version="0" />
			</rt_info>
			<input>
				<port id="0" precision="FP16">
					<dim>1</dim>
					<dim>1</dim>
					<dim>1280</dim>
				</port>
			</input>
			<output>
				<port id="1" precision="FP32">
					<dim>1</dim>
					<dim>1</dim>
					<dim>1280</dim>
				</port>
			</output>
		</layer>
		<layer id="135" name="__module.layers.0.final_layer_norm/aten::layer_norm/Multiply" type="Multiply" version="opset1">
			<data auto_broadcast="numpy" />
			<input>
				<port id="0" precision="FP32">
					<dim>-1</dim>
					<dim>1500</dim>
					<dim>1280</dim>
				</port>
				<port id="1" precision="FP32">
					<dim>1</dim>
					<dim>1</dim>
					<dim>1280</dim>
				</port>
			</input>
			<output>
				<port id="2" precision="FP32">
					<dim>-1</dim>
					<dim>1500</dim>
					<dim>1280</dim>
				</port>
			</output>
		</layer>
		<layer id="136" name="Constant_84535_compressed" type="Const" version="opset1">
			<data element_type="f16" shape="1, 1, 1280" offset="15677584" size="2560" />
			<output>
				<port id="0" precision="FP16">
					<dim>1</dim>
					<dim>1</dim>
					<dim>1280</dim>
				</port>
			</output>
		</layer>
		<layer id="137" name="Constant_84535" type="Convert" version="opset1">
			<data destination_type="f32" />
			<rt_info>
				<attribute name="decompression" version="0" />
			</rt_info>
			<input>
				<port id="0" precision="FP16">
					<dim>1</dim>
					<dim>1</dim>
					<dim>1280</dim>
				</port>
			</input>
			<output>
				<port id="1" precision="FP32">
					<dim>1</dim>
					<dim>1</dim>
					<dim>1280</dim>
				</port>
			</output>
		</layer>
		<layer id="138" name="__module.layers.0.final_layer_norm/aten::layer_norm/Add" type="Add" version="opset1">
			<data auto_broadcast="numpy" />
			<input>
				<port id="0" precision="FP32">
					<dim>-1</dim>
					<dim>1500</dim>
					<dim>1280</dim>
				</port>
				<port id="1" precision="FP32">
					<dim>1</dim>
					<dim>1</dim>
					<dim>1280</dim>
				</port>
			</input>
			<output>
				<port id="2" precision="FP32" names="225">
					<dim>-1</dim>
					<dim>1500</dim>
					<dim>1280</dim>
				</port>
			</output>
		</layer>
		<layer id="139" name="__module.layers.0.final_layer_norm/aten::layer_norm/Add_0_0/nncf_smooth_quant/scale" type="Const" version="opset1">
			<data element_type="f32" shape="1, 1, 1280" offset="15680144" size="5120" />
			<output>
				<port id="0" precision="FP32">
					<dim>1</dim>
					<dim>1</dim>
					<dim>1280</dim>
				</port>
			</output>
		</layer>
		<layer id="140" name="__module.layers.0.final_layer_norm/aten::layer_norm/Add_0_0/nncf_smooth_quant" type="Multiply" version="opset1">
			<data auto_broadcast="numpy" />
			<input>
				<port id="0" precision="FP32">
					<dim>-1</dim>
					<dim>1500</dim>
					<dim>1280</dim>
				</port>
				<port id="1" precision="FP32">
					<dim>1</dim>
					<dim>1</dim>
					<dim>1280</dim>
				</port>
			</input>
			<output>
				<port id="2" precision="FP32">
					<dim>-1</dim>
					<dim>1500</dim>
					<dim>1280</dim>
				</port>
			</output>
		</layer>
		<layer id="141" name="__module.layers.0.final_layer_norm/aten::layer_norm/Add_0_0/nncf_smooth_quant/fq_output_0/input_low" type="Const" version="opset1">
			<data element_type="f32" shape="" offset="15685264" size="4" />
			<output>
				<port id="0" precision="FP32" />
			</output>
		</layer>
		<layer id="142" name="__module.layers.0.final_layer_norm/aten::layer_norm/Add_0_0/nncf_smooth_quant/fq_output_0/input_high" type="Const" version="opset1">
			<data element_type="f32" shape="" offset="15685268" size="4" />
			<output>
				<port id="0" precision="FP32" />
			</output>
		</layer>
		<layer id="143" name="__module.layers.0.final_layer_norm/aten::layer_norm/Add_0_0/nncf_smooth_quant/fq_output_0/output_low" type="Const" version="opset1">
			<data element_type="f32" shape="" offset="15685264" size="4" />
			<output>
				<port id="0" precision="FP32" />
			</output>
		</layer>
		<layer id="144" name="__module.layers.0.final_layer_norm/aten::layer_norm/Add_0_0/nncf_smooth_quant/fq_output_0/output_high" type="Const" version="opset1">
			<data element_type="f32" shape="" offset="15685268" size="4" />
			<output>
				<port id="0" precision="FP32" />
			</output>
		</layer>
		<layer id="145" name="__module.layers.0.final_layer_norm/aten::layer_norm/Add_0_0/nncf_smooth_quant/fq_output_0" type="FakeQuantize" version="opset1">
			<data levels="256" auto_broadcast="numpy" />
			<input>
				<port id="0" precision="FP32">
					<dim>-1</dim>
					<dim>1500</dim>
					<dim>1280</dim>
				</port>
				<port id="1" precision="FP32" />
				<port id="2" precision="FP32" />
				<port id="3" precision="FP32" />
				<port id="4" precision="FP32" />
			</input>
			<output>
				<port id="5" precision="FP32">
					<dim>-1</dim>
					<dim>1500</dim>
					<dim>1280</dim>
				</port>
			</output>
		</layer>
		<layer id="146" name="Constant_1707785" type="Const" version="opset1">
			<data element_type="i8" shape="5120, 1280" offset="15685272" size="6553600" />
			<output>
				<port id="0" precision="I8">
					<dim>5120</dim>
					<dim>1280</dim>
				</port>
			</output>
		</layer>
		<layer id="147" name="Convert_1707786" type="Convert" version="opset1">
			<data destination_type="f32" />
			<input>
				<port id="0" precision="I8">
					<dim>5120</dim>
					<dim>1280</dim>
				</port>
			</input>
			<output>
				<port id="1" precision="FP32">
					<dim>5120</dim>
					<dim>1280</dim>
				</port>
			</output>
		</layer>
		<layer id="148" name="Constant_1707787" type="Const" version="opset1">
			<data element_type="f32" shape="5120, 1" offset="22238872" size="20480" />
			<output>
				<port id="0" precision="FP32">
					<dim>5120</dim>
					<dim>1</dim>
				</port>
			</output>
		</layer>
		<layer id="149" name="__module.layers.0.fc1/aten::linear/MatMul/fq_weights_1" type="Multiply" version="opset1">
			<data auto_broadcast="numpy" />
			<input>
				<port id="0" precision="FP32">
					<dim>5120</dim>
					<dim>1280</dim>
				</port>
				<port id="1" precision="FP32">
					<dim>5120</dim>
					<dim>1</dim>
				</port>
			</input>
			<output>
				<port id="2" precision="FP32">
					<dim>5120</dim>
					<dim>1280</dim>
				</port>
			</output>
		</layer>
		<layer id="150" name="__module.layers.0.fc1/aten::linear/MatMul" type="MatMul" version="opset1">
			<data transpose_a="false" transpose_b="true" />
			<input>
				<port id="0" precision="FP32">
					<dim>-1</dim>
					<dim>1500</dim>
					<dim>1280</dim>
				</port>
				<port id="1" precision="FP32">
					<dim>5120</dim>
					<dim>1280</dim>
				</port>
			</input>
			<output>
				<port id="2" precision="FP32">
					<dim>-1</dim>
					<dim>1500</dim>
					<dim>5120</dim>
				</port>
			</output>
		</layer>
		<layer id="151" name="Constant_84536_compressed" type="Const" version="opset1">
			<data element_type="f16" shape="1, 1, 5120" offset="22259352" size="10240" />
			<output>
				<port id="0" precision="FP16">
					<dim>1</dim>
					<dim>1</dim>
					<dim>5120</dim>
				</port>
			</output>
		</layer>
		<layer id="152" name="Constant_84536" type="Convert" version="opset1">
			<data destination_type="f32" />
			<rt_info>
				<attribute name="decompression" version="0" />
			</rt_info>
			<input>
				<port id="0" precision="FP16">
					<dim>1</dim>
					<dim>1</dim>
					<dim>5120</dim>
				</port>
			</input>
			<output>
				<port id="1" precision="FP32">
					<dim>1</dim>
					<dim>1</dim>
					<dim>5120</dim>
				</port>
			</output>
		</layer>
		<layer id="153" name="__module.layers.0.fc1/aten::linear/Add" type="Add" version="opset1">
			<data auto_broadcast="numpy" />
			<input>
				<port id="0" precision="FP32">
					<dim>-1</dim>
					<dim>1500</dim>
					<dim>5120</dim>
				</port>
				<port id="1" precision="FP32">
					<dim>1</dim>
					<dim>1</dim>
					<dim>5120</dim>
				</port>
			</input>
			<output>
				<port id="2" precision="FP32" names="228">
					<dim>-1</dim>
					<dim>1500</dim>
					<dim>5120</dim>
				</port>
			</output>
		</layer>
		<layer id="154" name="__module.layers.0.activation_fn/aten::gelu/Gelu" type="Gelu" version="opset7">
			<data approximation_mode="ERF" />
			<input>
				<port id="0" precision="FP32">
					<dim>-1</dim>
					<dim>1500</dim>
					<dim>5120</dim>
				</port>
			</input>
			<output>
				<port id="1" precision="FP32" names="229,input.7">
					<dim>-1</dim>
					<dim>1500</dim>
					<dim>5120</dim>
				</port>
			</output>
		</layer>
		<layer id="155" name="__module.layers.0.activation_fn/aten::gelu/Gelu_0_0/nncf_smooth_quant/scale" type="Const" version="opset1">
			<data element_type="f32" shape="1, 1, 5120" offset="22269592" size="20480" />
			<output>
				<port id="0" precision="FP32">
					<dim>1</dim>
					<dim>1</dim>
					<dim>5120</dim>
				</port>
			</output>
		</layer>
		<layer id="156" name="__module.layers.0.activation_fn/aten::gelu/Gelu_0_0/nncf_smooth_quant" type="Multiply" version="opset1">
			<data auto_broadcast="numpy" />
			<input>
				<port id="0" precision="FP32">
					<dim>-1</dim>
					<dim>1500</dim>
					<dim>5120</dim>
				</port>
				<port id="1" precision="FP32">
					<dim>1</dim>
					<dim>1</dim>
					<dim>5120</dim>
				</port>
			</input>
			<output>
				<port id="2" precision="FP32">
					<dim>-1</dim>
					<dim>1500</dim>
					<dim>5120</dim>
				</port>
			</output>
		</layer>
		<layer id="157" name="__module.layers.0.activation_fn/aten::gelu/Gelu_0_0/nncf_smooth_quant/fq_output_0/input_low" type="Const" version="opset1">
			<data element_type="f32" shape="" offset="22290072" size="4" />
			<output>
				<port id="0" precision="FP32" />
			</output>
		</layer>
		<layer id="158" name="__module.layers.0.activation_fn/aten::gelu/Gelu_0_0/nncf_smooth_quant/fq_output_0/input_high" type="Const" version="opset1">
			<data element_type="f32" shape="" offset="22290076" size="4" />
			<output>
				<port id="0" precision="FP32" />
			</output>
		</layer>
		<layer id="159" name="__module.layers.0.activation_fn/aten::gelu/Gelu_0_0/nncf_smooth_quant/fq_output_0/output_low" type="Const" version="opset1">
			<data element_type="f32" shape="" offset="22290072" size="4" />
			<output>
				<port id="0" precision="FP32" />
			</output>
		</layer>
		<layer id="160" name="__module.layers.0.activation_fn/aten::gelu/Gelu_0_0/nncf_smooth_quant/fq_output_0/output_high" type="Const" version="opset1">
			<data element_type="f32" shape="" offset="22290076" size="4" />
			<output>
				<port id="0" precision="FP32" />
			</output>
		</layer>
		<layer id="161" name="__module.layers.0.activation_fn/aten::gelu/Gelu_0_0/nncf_smooth_quant/fq_output_0" type="FakeQuantize" version="opset1">
			<data levels="256" auto_broadcast="numpy" />
			<input>
				<port id="0" precision="FP32">
					<dim>-1</dim>
					<dim>1500</dim>
					<dim>5120</dim>
				</port>
				<port id="1" precision="FP32" />
				<port id="2" precision="FP32" />
				<port id="3" precision="FP32" />
				<port id="4" precision="FP32" />
			</input>
			<output>
				<port id="5" precision="FP32">
					<dim>-1</dim>
					<dim>1500</dim>
					<dim>5120</dim>
				</port>
			</output>
		</layer>
		<layer id="162" name="Constant_1707790" type="Const" version="opset1">
			<data element_type="i8" shape="1280, 5120" offset="22290080" size="6553600" />
			<output>
				<port id="0" precision="I8">
					<dim>1280</dim>
					<dim>5120</dim>
				</port>
			</output>
		</layer>
		<layer id="163" name="Convert_1707791" type="Convert" version="opset1">
			<data destination_type="f32" />
			<input>
				<port id="0" precision="I8">
					<dim>1280</dim>
					<dim>5120</dim>
				</port>
			</input>
			<output>
				<port id="1" precision="FP32">
					<dim>1280</dim>
					<dim>5120</dim>
				</port>
			</output>
		</layer>
		<layer id="164" name="Constant_1707792" type="Const" version="opset1">
			<data element_type="f32" shape="1280, 1" offset="28843680" size="5120" />
			<output>
				<port id="0" precision="FP32">
					<dim>1280</dim>
					<dim>1</dim>
				</port>
			</output>
		</layer>
		<layer id="165" name="__module.layers.0.fc2/aten::linear/MatMul/fq_weights_1" type="Multiply" version="opset1">
			<data auto_broadcast="numpy" />
			<input>
				<port id="0" precision="FP32">
					<dim>1280</dim>
					<dim>5120</dim>
				</port>
				<port id="1" precision="FP32">
					<dim>1280</dim>
					<dim>1</dim>
				</port>
			</input>
			<output>
				<port id="2" precision="FP32">
					<dim>1280</dim>
					<dim>5120</dim>
				</port>
			</output>
		</layer>
		<layer id="166" name="__module.layers.0.fc2/aten::linear/MatMul" type="MatMul" version="opset1">
			<data transpose_a="false" transpose_b="true" />
			<input>
				<port id="0" precision="FP32">
					<dim>-1</dim>
					<dim>1500</dim>
					<dim>5120</dim>
				</port>
				<port id="1" precision="FP32">
					<dim>1280</dim>
					<dim>5120</dim>
				</port>
			</input>
			<output>
				<port id="2" precision="FP32">
					<dim>-1</dim>
					<dim>1500</dim>
					<dim>1280</dim>
				</port>
			</output>
		</layer>
		<layer id="167" name="Constant_84537_compressed" type="Const" version="opset1">
			<data element_type="f16" shape="1, 1, 1280" offset="28848800" size="2560" />
			<output>
				<port id="0" precision="FP16">
					<dim>1</dim>
					<dim>1</dim>
					<dim>1280</dim>
				</port>
			</output>
		</layer>
		<layer id="168" name="Constant_84537" type="Convert" version="opset1">
			<data destination_type="f32" />
			<rt_info>
				<attribute name="decompression" version="0" />
			</rt_info>
			<input>
				<port id="0" precision="FP16">
					<dim>1</dim>
					<dim>1</dim>
					<dim>1280</dim>
				</port>
			</input>
			<output>
				<port id="1" precision="FP32">
					<dim>1</dim>
					<dim>1</dim>
					<dim>1280</dim>
				</port>
			</output>
		</layer>
		<layer id="169" name="__module.layers.0.fc2/aten::linear/Add" type="Add" version="opset1">
			<data auto_broadcast="numpy" />
			<input>
				<port id="0" precision="FP32">
					<dim>-1</dim>
					<dim>1500</dim>
					<dim>1280</dim>
				</port>
				<port id="1" precision="FP32">
					<dim>1</dim>
					<dim>1</dim>
					<dim>1280</dim>
				</port>
			</input>
			<output>
				<port id="2" precision="FP32" names="233,input.9">
					<dim>-1</dim>
					<dim>1500</dim>
					<dim>1280</dim>
				</port>
			</output>
		</layer>
		<layer id="170" name="__module.layers.0/aten::add/Add_1" type="Add" version="opset1">
			<data auto_broadcast="numpy" />
			<input>
				<port id="0" precision="FP32">
					<dim>-1</dim>
					<dim>1500</dim>
					<dim>1280</dim>
				</port>
				<port id="1" precision="FP32">
					<dim>-1</dim>
					<dim>1500</dim>
					<dim>1280</dim>
				</port>
			</input>
			<output>
				<port id="2" precision="FP32" names="235,residual.5">
					<dim>-1</dim>
					<dim>1500</dim>
					<dim>1280</dim>
				</port>
			</output>
		</layer>
		<layer id="171" name="__module.layers.1.self_attn_layer_norm/aten::layer_norm/Constant" type="Const" version="opset1">
			<data element_type="i32" shape="1" offset="9077800" size="4" />
			<output>
				<port id="0" precision="I32">
					<dim>1</dim>
				</port>
			</output>
		</layer>
		<layer id="172" name="__module.layers.1.self_attn_layer_norm/aten::layer_norm/MVN" type="MVN" version="opset6">
			<data eps="9.9999997473787516e-06" normalize_variance="true" eps_mode="INSIDE_SQRT" />
			<input>
				<port id="0" precision="FP32">
					<dim>-1</dim>
					<dim>1500</dim>
					<dim>1280</dim>
				</port>
				<port id="1" precision="I32">
					<dim>1</dim>
				</port>
			</input>
			<output>
				<port id="2" precision="FP32">
					<dim>-1</dim>
					<dim>1500</dim>
					<dim>1280</dim>
				</port>
			</output>
		</layer>
		<layer id="173" name="Constant_84538_compressed" type="Const" version="opset1">
			<data element_type="f16" shape="1, 1, 1280" offset="28851360" size="2560" />
			<output>
				<port id="0" precision="FP16">
					<dim>1</dim>
					<dim>1</dim>
					<dim>1280</dim>
				</port>
			</output>
		</layer>
		<layer id="174" name="Constant_84538" type="Convert" version="opset1">
			<data destination_type="f32" />
			<rt_info>
				<attribute name="decompression" version="0" />
			</rt_info>
			<input>
				<port id="0" precision="FP16">
					<dim>1</dim>
					<dim>1</dim>
					<dim>1280</dim>
				</port>
			</input>
			<output>
				<port id="1" precision="FP32">
					<dim>1</dim>
					<dim>1</dim>
					<dim>1280</dim>
				</port>
			</output>
		</layer>
		<layer id="175" name="__module.layers.1.self_attn_layer_norm/aten::layer_norm/Multiply" type="Multiply" version="opset1">
			<data auto_broadcast="numpy" />
			<input>
				<port id="0" precision="FP32">
					<dim>-1</dim>
					<dim>1500</dim>
					<dim>1280</dim>
				</port>
				<port id="1" precision="FP32">
					<dim>1</dim>
					<dim>1</dim>
					<dim>1280</dim>
				</port>
			</input>
			<output>
				<port id="2" precision="FP32">
					<dim>-1</dim>
					<dim>1500</dim>
					<dim>1280</dim>
				</port>
			</output>
		</layer>
		<layer id="176" name="Constant_84539_compressed" type="Const" version="opset1">
			<data element_type="f16" shape="1, 1, 1280" offset="28853920" size="2560" />
			<output>
				<port id="0" precision="FP16">
					<dim>1</dim>
					<dim>1</dim>
					<dim>1280</dim>
				</port>
			</output>
		</layer>
		<layer id="177" name="Constant_84539" type="Convert" version="opset1">
			<data destination_type="f32" />
			<rt_info>
				<attribute name="decompression" version="0" />
			</rt_info>
			<input>
				<port id="0" precision="FP16">
					<dim>1</dim>
					<dim>1</dim>
					<dim>1280</dim>
				</port>
			</input>
			<output>
				<port id="1" precision="FP32">
					<dim>1</dim>
					<dim>1</dim>
					<dim>1280</dim>
				</port>
			</output>
		</layer>
		<layer id="178" name="__module.layers.1.self_attn_layer_norm/aten::layer_norm/Add" type="Add" version="opset1">
			<data auto_broadcast="numpy" />
			<input>
				<port id="0" precision="FP32">
					<dim>-1</dim>
					<dim>1500</dim>
					<dim>1280</dim>
				</port>
				<port id="1" precision="FP32">
					<dim>1</dim>
					<dim>1</dim>
					<dim>1280</dim>
				</port>
			</input>
			<output>
				<port id="2" precision="FP32" names="260,hidden_states.7">
					<dim>-1</dim>
					<dim>1500</dim>
					<dim>1280</dim>
				</port>
			</output>
		</layer>
		<layer id="179" name="__module.layers.1.self_attn_layer_norm/aten::layer_norm/Add_0_0/nncf_smooth_quant/scale" type="Const" version="opset1">
			<data element_type="f32" shape="1, 1, 1280" offset="28856480" size="5120" />
			<output>
				<port id="0" precision="FP32">
					<dim>1</dim>
					<dim>1</dim>
					<dim>1280</dim>
				</port>
			</output>
		</layer>
		<layer id="180" name="__module.layers.1.self_attn_layer_norm/aten::layer_norm/Add_0_0/nncf_smooth_quant" type="Multiply" version="opset1">
			<data auto_broadcast="numpy" />
			<input>
				<port id="0" precision="FP32">
					<dim>-1</dim>
					<dim>1500</dim>
					<dim>1280</dim>
				</port>
				<port id="1" precision="FP32">
					<dim>1</dim>
					<dim>1</dim>
					<dim>1280</dim>
				</port>
			</input>
			<output>
				<port id="2" precision="FP32">
					<dim>-1</dim>
					<dim>1500</dim>
					<dim>1280</dim>
				</port>
			</output>
		</layer>
		<layer id="181" name="__module.layers.1.self_attn_layer_norm/aten::layer_norm/Add_0_0/nncf_smooth_quant/fq_output_0/input_low" type="Const" version="opset1">
			<data element_type="f32" shape="" offset="28861600" size="4" />
			<output>
				<port id="0" precision="FP32" />
			</output>
		</layer>
		<layer id="182" name="__module.layers.1.self_attn_layer_norm/aten::layer_norm/Add_0_0/nncf_smooth_quant/fq_output_0/input_high" type="Const" version="opset1">
			<data element_type="f32" shape="" offset="28861604" size="4" />
			<output>
				<port id="0" precision="FP32" />
			</output>
		</layer>
		<layer id="183" name="__module.layers.1.self_attn_layer_norm/aten::layer_norm/Add_0_0/nncf_smooth_quant/fq_output_0/output_low" type="Const" version="opset1">
			<data element_type="f32" shape="" offset="28861600" size="4" />
			<output>
				<port id="0" precision="FP32" />
			</output>
		</layer>
		<layer id="184" name="__module.layers.1.self_attn_layer_norm/aten::layer_norm/Add_0_0/nncf_smooth_quant/fq_output_0/output_high" type="Const" version="opset1">
			<data element_type="f32" shape="" offset="28861604" size="4" />
			<output>
				<port id="0" precision="FP32" />
			</output>
		</layer>
		<layer id="185" name="__module.layers.1.self_attn_layer_norm/aten::layer_norm/Add_0_0/nncf_smooth_quant/fq_output_0" type="FakeQuantize" version="opset1">
			<data levels="256" auto_broadcast="numpy" />
			<input>
				<port id="0" precision="FP32">
					<dim>-1</dim>
					<dim>1500</dim>
					<dim>1280</dim>
				</port>
				<port id="1" precision="FP32" />
				<port id="2" precision="FP32" />
				<port id="3" precision="FP32" />
				<port id="4" precision="FP32" />
			</input>
			<output>
				<port id="5" precision="FP32">
					<dim>-1</dim>
					<dim>1500</dim>
					<dim>1280</dim>
				</port>
			</output>
		</layer>
		<layer id="186" name="Constant_1707795" type="Const" version="opset1">
			<data element_type="i8" shape="1280, 1280" offset="28861608" size="1638400" />
			<output>
				<port id="0" precision="I8">
					<dim>1280</dim>
					<dim>1280</dim>
				</port>
			</output>
		</layer>
		<layer id="187" name="Convert_1707796" type="Convert" version="opset1">
			<data destination_type="f32" />
			<input>
				<port id="0" precision="I8">
					<dim>1280</dim>
					<dim>1280</dim>
				</port>
			</input>
			<output>
				<port id="1" precision="FP32">
					<dim>1280</dim>
					<dim>1280</dim>
				</port>
			</output>
		</layer>
		<layer id="188" name="Constant_1707797" type="Const" version="opset1">
			<data element_type="f32" shape="1280, 1" offset="30500008" size="5120" />
			<output>
				<port id="0" precision="FP32">
					<dim>1280</dim>
					<dim>1</dim>
				</port>
			</output>
		</layer>
		<layer id="189" name="Multiply_83786/fq_weights_1" type="Multiply" version="opset1">
			<data auto_broadcast="numpy" />
			<input>
				<port id="0" precision="FP32">
					<dim>1280</dim>
					<dim>1280</dim>
				</port>
				<port id="1" precision="FP32">
					<dim>1280</dim>
					<dim>1</dim>
				</port>
			</input>
			<output>
				<port id="2" precision="FP32">
					<dim>1280</dim>
					<dim>1280</dim>
				</port>
			</output>
		</layer>
		<layer id="190" name="Multiply_83786" type="MatMul" version="opset1">
			<data transpose_a="false" transpose_b="true" />
			<input>
				<port id="0" precision="FP32">
					<dim>-1</dim>
					<dim>1500</dim>
					<dim>1280</dim>
				</port>
				<port id="1" precision="FP32">
					<dim>1280</dim>
					<dim>1280</dim>
				</port>
			</input>
			<output>
				<port id="2" precision="FP32">
					<dim>-1</dim>
					<dim>1500</dim>
					<dim>1280</dim>
				</port>
			</output>
		</layer>
		<layer id="191" name="Constant_84540_compressed" type="Const" version="opset1">
			<data element_type="f16" shape="1, 1, 1280" offset="30505128" size="2560" />
			<output>
				<port id="0" precision="FP16">
					<dim>1</dim>
					<dim>1</dim>
					<dim>1280</dim>
				</port>
			</output>
		</layer>
		<layer id="192" name="Constant_84540" type="Convert" version="opset1">
			<data destination_type="f32" />
			<rt_info>
				<attribute name="decompression" version="0" />
			</rt_info>
			<input>
				<port id="0" precision="FP16">
					<dim>1</dim>
					<dim>1</dim>
					<dim>1280</dim>
				</port>
			</input>
			<output>
				<port id="1" precision="FP32">
					<dim>1</dim>
					<dim>1</dim>
					<dim>1280</dim>
				</port>
			</output>
		</layer>
		<layer id="193" name="__module.layers.1.self_attn/aten::mul/Multiply" type="Add" version="opset1">
			<data auto_broadcast="numpy" />
			<input>
				<port id="0" precision="FP32">
					<dim>-1</dim>
					<dim>1500</dim>
					<dim>1280</dim>
				</port>
				<port id="1" precision="FP32">
					<dim>1</dim>
					<dim>1</dim>
					<dim>1280</dim>
				</port>
			</input>
			<output>
				<port id="2" precision="FP32" names="271,tensor.11">
					<dim>-1</dim>
					<dim>1500</dim>
					<dim>1280</dim>
				</port>
			</output>
		</layer>
		<layer id="194" name="__module.layers.1.self_attn/aten::mul/Multiply/fq_output_0/input_low" type="Const" version="opset1">
			<data element_type="f32" shape="" offset="30507688" size="4" />
			<output>
				<port id="0" precision="FP32" />
			</output>
		</layer>
		<layer id="195" name="__module.layers.1.self_attn/aten::mul/Multiply/fq_output_0/input_high" type="Const" version="opset1">
			<data element_type="f32" shape="" offset="30507692" size="4" />
			<output>
				<port id="0" precision="FP32" />
			</output>
		</layer>
		<layer id="196" name="__module.layers.1.self_attn/aten::mul/Multiply/fq_output_0/output_low" type="Const" version="opset1">
			<data element_type="f32" shape="" offset="30507688" size="4" />
			<output>
				<port id="0" precision="FP32" />
			</output>
		</layer>
		<layer id="197" name="__module.layers.1.self_attn/aten::mul/Multiply/fq_output_0/output_high" type="Const" version="opset1">
			<data element_type="f32" shape="" offset="30507692" size="4" />
			<output>
				<port id="0" precision="FP32" />
			</output>
		</layer>
		<layer id="198" name="__module.layers.1.self_attn/aten::mul/Multiply/fq_output_0" type="FakeQuantize" version="opset1">
			<data levels="256" auto_broadcast="numpy" />
			<input>
				<port id="0" precision="FP32">
					<dim>-1</dim>
					<dim>1500</dim>
					<dim>1280</dim>
				</port>
				<port id="1" precision="FP32" />
				<port id="2" precision="FP32" />
				<port id="3" precision="FP32" />
				<port id="4" precision="FP32" />
			</input>
			<output>
				<port id="5" precision="FP32">
					<dim>-1</dim>
					<dim>1500</dim>
					<dim>1280</dim>
				</port>
			</output>
		</layer>
		<layer id="199" name="__module.layers.1.self_attn/aten::size/ShapeOf" type="ShapeOf" version="opset3">
			<data output_type="i64" />
			<input>
				<port id="0" precision="FP32">
					<dim>-1</dim>
					<dim>1500</dim>
					<dim>1280</dim>
				</port>
			</input>
			<output>
				<port id="1" precision="I64">
					<dim>3</dim>
				</port>
			</output>
		</layer>
		<layer id="200" name="Constant_145377" type="Const" version="opset1">
			<data element_type="i64" shape="2" offset="30507696" size="16" />
			<rt_info>
				<attribute name="precise" version="0" />
			</rt_info>
			<output>
				<port id="0" precision="I64">
					<dim>2</dim>
				</port>
			</output>
		</layer>
		<layer id="201" name="Constant_145378" type="Const" version="opset1">
			<data element_type="i64" shape="" offset="10734140" size="8" />
			<rt_info>
				<attribute name="precise" version="0" />
			</rt_info>
			<output>
				<port id="0" precision="I64" />
			</output>
		</layer>
		<layer id="202" name="Gather_145379" type="Gather" version="opset8">
			<data batch_dims="0" />
			<input>
				<port id="0" precision="I64">
					<dim>3</dim>
				</port>
				<port id="1" precision="I64">
					<dim>2</dim>
				</port>
				<port id="2" precision="I64" />
			</input>
			<output>
				<port id="3" precision="I64">
					<dim>2</dim>
				</port>
			</output>
		</layer>
		<layer id="203" name="__module.layers.1.self_attn/prim::ListConstruct/Reshape_1" type="Const" version="opset1">
			<data element_type="i64" shape="1" offset="10734160" size="8" />
			<rt_info>
				<attribute name="precise" version="0" />
			</rt_info>
			<output>
				<port id="0" precision="I64">
					<dim>1</dim>
				</port>
			</output>
		</layer>
		<layer id="204" name="__module.layers.1.self_attn/prim::ListConstruct/Reshape_2" type="Const" version="opset1">
			<data element_type="i64" shape="1" offset="10734168" size="8" />
			<rt_info>
				<attribute name="precise" version="0" />
			</rt_info>
			<output>
				<port id="0" precision="I64">
					<dim>1</dim>
				</port>
			</output>
		</layer>
		<layer id="205" name="__module.layers.1.self_attn/prim::ListConstruct/Concat" type="Concat" version="opset1">
			<data axis="0" />
			<input>
				<port id="0" precision="I64">
					<dim>2</dim>
				</port>
				<port id="1" precision="I64">
					<dim>1</dim>
				</port>
				<port id="2" precision="I64">
					<dim>1</dim>
				</port>
			</input>
			<output>
				<port id="3" precision="I64" names="289">
					<dim>4</dim>
				</port>
			</output>
		</layer>
		<layer id="206" name="__module.layers.1.self_attn/aten::view/Reshape" type="Reshape" version="opset1">
			<data special_zero="false" />
			<input>
				<port id="0" precision="FP32">
					<dim>-1</dim>
					<dim>1500</dim>
					<dim>1280</dim>
				</port>
				<port id="1" precision="I64">
					<dim>4</dim>
				</port>
			</input>
			<output>
				<port id="2" precision="FP32" names="290">
					<dim>-1</dim>
					<dim>1500</dim>
					<dim>20</dim>
					<dim>64</dim>
				</port>
			</output>
		</layer>
		<layer id="207" name="__module.layers.1.self_attn/aten::transpose/ScatterElementsUpdate" type="Const" version="opset1">
			<data element_type="i32" shape="4" offset="10734176" size="16" />
			<output>
				<port id="0" precision="I32">
					<dim>4</dim>
				</port>
			</output>
		</layer>
		<layer id="208" name="__module.layers.1.self_attn/aten::transpose/Transpose" type="Transpose" version="opset1">
			<input>
				<port id="0" precision="FP32">
					<dim>-1</dim>
					<dim>1500</dim>
					<dim>20</dim>
					<dim>64</dim>
				</port>
				<port id="1" precision="I32">
					<dim>4</dim>
				</port>
			</input>
			<output>
				<port id="2" precision="FP32" names="291">
					<dim>-1</dim>
					<dim>20</dim>
					<dim>1500</dim>
					<dim>64</dim>
				</port>
			</output>
		</layer>
		<layer id="209" name="Constant_145285" type="Const" version="opset1">
			<data element_type="i64" shape="1" offset="10734140" size="8" />
			<rt_info>
				<attribute name="precise" version="0" />
			</rt_info>
			<output>
				<port id="0" precision="I64">
					<dim>1</dim>
				</port>
			</output>
		</layer>
		<layer id="210" name="__module.layers.1.self_attn/aten::size/Constant" type="Const" version="opset1">
			<data element_type="i32" shape="" offset="10734148" size="4" />
			<rt_info>
				<attribute name="precise" version="0" />
			</rt_info>
			<output>
				<port id="0" precision="I32" />
			</output>
		</layer>
		<layer id="211" name="__module.layers.1.self_attn/aten::size/Gather" type="Gather" version="opset8">
			<data batch_dims="0" />
			<input>
				<port id="0" precision="I64">
					<dim>3</dim>
				</port>
				<port id="1" precision="I64">
					<dim>1</dim>
				</port>
				<port id="2" precision="I32" />
			</input>
			<output>
				<port id="3" precision="I64" names="265">
					<dim>1</dim>
				</port>
			</output>
		</layer>
		<layer id="212" name="Constant_145189" type="Const" version="opset1">
			<data element_type="i64" shape="1" offset="10734160" size="8" />
			<rt_info>
				<attribute name="precise" version="0" />
			</rt_info>
			<output>
				<port id="0" precision="I64">
					<dim>1</dim>
				</port>
			</output>
		</layer>
		<layer id="213" name="__module.layers.1.self_attn/aten::mul/Multiply_1" type="Multiply" version="opset1">
			<data auto_broadcast="numpy" />
			<input>
				<port id="0" precision="I64">
					<dim>1</dim>
				</port>
				<port id="1" precision="I64">
					<dim>1</dim>
				</port>
			</input>
			<output>
				<port id="2" precision="I64" names="285,286,287,288">
					<dim>1</dim>
				</port>
			</output>
		</layer>
		<layer id="214" name="__module.layers.1.self_attn/prim::ListConstruct/Reshape_0_1" type="Const" version="opset1">
			<data element_type="i64" shape="1" offset="10734192" size="8" />
			<rt_info>
				<attribute name="precise" version="0" />
			</rt_info>
			<output>
				<port id="0" precision="I64">
					<dim>1</dim>
				</port>
			</output>
		</layer>
		<layer id="215" name="__module.layers.1.self_attn/prim::ListConstruct/Concat_1" type="Concat" version="opset1">
			<data axis="0" />
			<input>
				<port id="0" precision="I64">
					<dim>1</dim>
				</port>
				<port id="1" precision="I64">
					<dim>1</dim>
				</port>
				<port id="2" precision="I64">
					<dim>1</dim>
				</port>
			</input>
			<output>
				<port id="3" precision="I64" names="293,295,297">
					<dim>3</dim>
				</port>
			</output>
		</layer>
		<layer id="216" name="__module.layers.1.self_attn/aten::view/Reshape_1" type="Reshape" version="opset1">
			<data special_zero="false" />
			<input>
				<port id="0" precision="FP32">
					<dim>-1</dim>
					<dim>20</dim>
					<dim>1500</dim>
					<dim>64</dim>
				</port>
				<port id="1" precision="I64">
					<dim>3</dim>
				</port>
			</input>
			<output>
				<port id="2" precision="FP32" names="294">
					<dim>-1</dim>
					<dim>-1</dim>
					<dim>64</dim>
				</port>
			</output>
		</layer>
		<layer id="217" name="Constant_1707800" type="Const" version="opset1">
			<data element_type="i8" shape="1280, 1280" offset="30507712" size="1638400" />
			<output>
				<port id="0" precision="I8">
					<dim>1280</dim>
					<dim>1280</dim>
				</port>
			</output>
		</layer>
		<layer id="218" name="Convert_1707801" type="Convert" version="opset1">
			<data destination_type="f32" />
			<input>
				<port id="0" precision="I8">
					<dim>1280</dim>
					<dim>1280</dim>
				</port>
			</input>
			<output>
				<port id="1" precision="FP32">
					<dim>1280</dim>
					<dim>1280</dim>
				</port>
			</output>
		</layer>
		<layer id="219" name="Constant_1707802" type="Const" version="opset1">
			<data element_type="f32" shape="1280, 1" offset="32146112" size="5120" />
			<output>
				<port id="0" precision="FP32">
					<dim>1280</dim>
					<dim>1</dim>
				</port>
			</output>
		</layer>
		<layer id="220" name="__module.layers.1.self_attn.k_proj/aten::linear/MatMul/fq_weights_1" type="Multiply" version="opset1">
			<data auto_broadcast="numpy" />
			<input>
				<port id="0" precision="FP32">
					<dim>1280</dim>
					<dim>1280</dim>
				</port>
				<port id="1" precision="FP32">
					<dim>1280</dim>
					<dim>1</dim>
				</port>
			</input>
			<output>
				<port id="2" precision="FP32">
					<dim>1280</dim>
					<dim>1280</dim>
				</port>
			</output>
		</layer>
		<layer id="221" name="__module.layers.1.self_attn.k_proj/aten::linear/MatMul" type="MatMul" version="opset1">
			<data transpose_a="false" transpose_b="true" />
			<input>
				<port id="0" precision="FP32">
					<dim>-1</dim>
					<dim>1500</dim>
					<dim>1280</dim>
				</port>
				<port id="1" precision="FP32">
					<dim>1280</dim>
					<dim>1280</dim>
				</port>
			</input>
			<output>
				<port id="2" precision="FP32" names="273,tensor.7">
					<dim>-1</dim>
					<dim>1500</dim>
					<dim>1280</dim>
				</port>
			</output>
		</layer>
		<layer id="222" name="__module.layers.1.self_attn.k_proj/aten::linear/MatMul/fq_output_0/input_low" type="Const" version="opset1">
			<data element_type="f32" shape="" offset="32151232" size="4" />
			<output>
				<port id="0" precision="FP32" />
			</output>
		</layer>
		<layer id="223" name="__module.layers.1.self_attn.k_proj/aten::linear/MatMul/fq_output_0/input_high" type="Const" version="opset1">
			<data element_type="f32" shape="" offset="32151236" size="4" />
			<output>
				<port id="0" precision="FP32" />
			</output>
		</layer>
		<layer id="224" name="__module.layers.1.self_attn.k_proj/aten::linear/MatMul/fq_output_0/output_low" type="Const" version="opset1">
			<data element_type="f32" shape="" offset="32151232" size="4" />
			<output>
				<port id="0" precision="FP32" />
			</output>
		</layer>
		<layer id="225" name="__module.layers.1.self_attn.k_proj/aten::linear/MatMul/fq_output_0/output_high" type="Const" version="opset1">
			<data element_type="f32" shape="" offset="32151236" size="4" />
			<output>
				<port id="0" precision="FP32" />
			</output>
		</layer>
		<layer id="226" name="__module.layers.1.self_attn.k_proj/aten::linear/MatMul/fq_output_0" type="FakeQuantize" version="opset1">
			<data levels="256" auto_broadcast="numpy" />
			<input>
				<port id="0" precision="FP32">
					<dim>-1</dim>
					<dim>1500</dim>
					<dim>1280</dim>
				</port>
				<port id="1" precision="FP32" />
				<port id="2" precision="FP32" />
				<port id="3" precision="FP32" />
				<port id="4" precision="FP32" />
			</input>
			<output>
				<port id="5" precision="FP32">
					<dim>-1</dim>
					<dim>1500</dim>
					<dim>1280</dim>
				</port>
			</output>
		</layer>
		<layer id="227" name="__module.layers.1.self_attn/prim::ListConstruct/Concat_2" type="Concat" version="opset1">
			<data axis="0" />
			<input>
				<port id="0" precision="I64">
					<dim>1</dim>
				</port>
				<port id="1" precision="I64">
					<dim>1</dim>
				</port>
				<port id="2" precision="I64">
					<dim>1</dim>
				</port>
				<port id="3" precision="I64">
					<dim>1</dim>
				</port>
			</input>
			<output>
				<port id="4" precision="I64" names="274,281">
					<dim>4</dim>
				</port>
			</output>
		</layer>
		<layer id="228" name="__module.layers.1.self_attn/aten::view/Reshape_2" type="Reshape" version="opset1">
			<data special_zero="false" />
			<input>
				<port id="0" precision="FP32">
					<dim>-1</dim>
					<dim>1500</dim>
					<dim>1280</dim>
				</port>
				<port id="1" precision="I64">
					<dim>4</dim>
				</port>
			</input>
			<output>
				<port id="2" precision="FP32" names="275">
					<dim>-1</dim>
					<dim>-1</dim>
					<dim>20</dim>
					<dim>64</dim>
				</port>
			</output>
		</layer>
		<layer id="229" name="__module.layers.1.self_attn/aten::transpose/ScatterElementsUpdate_1" type="Const" version="opset1">
			<data element_type="i32" shape="4" offset="10734176" size="16" />
			<output>
				<port id="0" precision="I32">
					<dim>4</dim>
				</port>
			</output>
		</layer>
		<layer id="230" name="__module.layers.1.self_attn/aten::transpose/Transpose_1" type="Transpose" version="opset1">
			<input>
				<port id="0" precision="FP32">
					<dim>-1</dim>
					<dim>-1</dim>
					<dim>20</dim>
					<dim>64</dim>
				</port>
				<port id="1" precision="I32">
					<dim>4</dim>
				</port>
			</input>
			<output>
				<port id="2" precision="FP32" names="276">
					<dim>-1</dim>
					<dim>20</dim>
					<dim>-1</dim>
					<dim>64</dim>
				</port>
			</output>
		</layer>
		<layer id="231" name="__module.layers.1.self_attn/aten::reshape/Reshape" type="Reshape" version="opset1">
			<data special_zero="false" />
			<input>
				<port id="0" precision="FP32">
					<dim>-1</dim>
					<dim>20</dim>
					<dim>-1</dim>
					<dim>64</dim>
				</port>
				<port id="1" precision="I64">
					<dim>3</dim>
				</port>
			</input>
			<output>
				<port id="2" precision="FP32" names="296,key_states.7">
					<dim>-1</dim>
					<dim>-1</dim>
					<dim>64</dim>
				</port>
			</output>
		</layer>
		<layer id="232" name="__module.layers.1.self_attn/aten::bmm/MatMul" type="MatMul" version="opset1">
			<data transpose_a="false" transpose_b="true" />
			<input>
				<port id="0" precision="FP32">
					<dim>-1</dim>
					<dim>-1</dim>
					<dim>64</dim>
				</port>
				<port id="1" precision="FP32">
					<dim>-1</dim>
					<dim>-1</dim>
					<dim>64</dim>
				</port>
			</input>
			<output>
				<port id="2" precision="FP32" names="300,attn_weights.3">
					<dim>-1</dim>
					<dim>-1</dim>
					<dim>-1</dim>
				</port>
			</output>
		</layer>
		<layer id="233" name="__module.layers.1.self_attn/aten::softmax/Softmax" type="SoftMax" version="opset8">
			<data axis="-1" />
			<input>
				<port id="0" precision="FP32">
					<dim>-1</dim>
					<dim>-1</dim>
					<dim>-1</dim>
				</port>
			</input>
			<output>
				<port id="1" precision="FP32" names="301,input.11">
					<dim>-1</dim>
					<dim>-1</dim>
					<dim>-1</dim>
				</port>
			</output>
		</layer>
		<layer id="234" name="Constant_1707805" type="Const" version="opset1">
			<data element_type="i8" shape="1280, 1280" offset="32151240" size="1638400" />
			<output>
				<port id="0" precision="I8">
					<dim>1280</dim>
					<dim>1280</dim>
				</port>
			</output>
		</layer>
		<layer id="235" name="Convert_1707806" type="Convert" version="opset1">
			<data destination_type="f32" />
			<input>
				<port id="0" precision="I8">
					<dim>1280</dim>
					<dim>1280</dim>
				</port>
			</input>
			<output>
				<port id="1" precision="FP32">
					<dim>1280</dim>
					<dim>1280</dim>
				</port>
			</output>
		</layer>
		<layer id="236" name="Constant_1707807" type="Const" version="opset1">
			<data element_type="f32" shape="1280, 1" offset="33789640" size="5120" />
			<output>
				<port id="0" precision="FP32">
					<dim>1280</dim>
					<dim>1</dim>
				</port>
			</output>
		</layer>
		<layer id="237" name="__module.layers.1.self_attn.v_proj/aten::linear/MatMul/fq_weights_1" type="Multiply" version="opset1">
			<data auto_broadcast="numpy" />
			<input>
				<port id="0" precision="FP32">
					<dim>1280</dim>
					<dim>1280</dim>
				</port>
				<port id="1" precision="FP32">
					<dim>1280</dim>
					<dim>1</dim>
				</port>
			</input>
			<output>
				<port id="2" precision="FP32">
					<dim>1280</dim>
					<dim>1280</dim>
				</port>
			</output>
		</layer>
		<layer id="238" name="__module.layers.1.self_attn.v_proj/aten::linear/MatMul" type="MatMul" version="opset1">
			<data transpose_a="false" transpose_b="true" />
			<input>
				<port id="0" precision="FP32">
					<dim>-1</dim>
					<dim>1500</dim>
					<dim>1280</dim>
				</port>
				<port id="1" precision="FP32">
					<dim>1280</dim>
					<dim>1280</dim>
				</port>
			</input>
			<output>
				<port id="2" precision="FP32">
					<dim>-1</dim>
					<dim>1500</dim>
					<dim>1280</dim>
				</port>
			</output>
		</layer>
		<layer id="239" name="Constant_84541_compressed" type="Const" version="opset1">
			<data element_type="f16" shape="1, 1, 1280" offset="33794760" size="2560" />
			<output>
				<port id="0" precision="FP16">
					<dim>1</dim>
					<dim>1</dim>
					<dim>1280</dim>
				</port>
			</output>
		</layer>
		<layer id="240" name="Constant_84541" type="Convert" version="opset1">
			<data destination_type="f32" />
			<rt_info>
				<attribute name="decompression" version="0" />
			</rt_info>
			<input>
				<port id="0" precision="FP16">
					<dim>1</dim>
					<dim>1</dim>
					<dim>1280</dim>
				</port>
			</input>
			<output>
				<port id="1" precision="FP32">
					<dim>1</dim>
					<dim>1</dim>
					<dim>1280</dim>
				</port>
			</output>
		</layer>
		<layer id="241" name="__module.layers.1.self_attn.v_proj/aten::linear/Add" type="Add" version="opset1">
			<data auto_broadcast="numpy" />
			<input>
				<port id="0" precision="FP32">
					<dim>-1</dim>
					<dim>1500</dim>
					<dim>1280</dim>
				</port>
				<port id="1" precision="FP32">
					<dim>1</dim>
					<dim>1</dim>
					<dim>1280</dim>
				</port>
			</input>
			<output>
				<port id="2" precision="FP32" names="280,tensor.9">
					<dim>-1</dim>
					<dim>1500</dim>
					<dim>1280</dim>
				</port>
			</output>
		</layer>
		<layer id="242" name="__module.layers.1.self_attn/aten::view/Reshape_3" type="Reshape" version="opset1">
			<data special_zero="false" />
			<input>
				<port id="0" precision="FP32">
					<dim>-1</dim>
					<dim>1500</dim>
					<dim>1280</dim>
				</port>
				<port id="1" precision="I64">
					<dim>4</dim>
				</port>
			</input>
			<output>
				<port id="2" precision="FP32" names="282">
					<dim>-1</dim>
					<dim>-1</dim>
					<dim>20</dim>
					<dim>64</dim>
				</port>
			</output>
		</layer>
		<layer id="243" name="__module.layers.1.self_attn/aten::transpose/ScatterElementsUpdate_3" type="Const" version="opset1">
			<data element_type="i32" shape="4" offset="10734176" size="16" />
			<output>
				<port id="0" precision="I32">
					<dim>4</dim>
				</port>
			</output>
		</layer>
		<layer id="244" name="__module.layers.1.self_attn/aten::transpose/Transpose_3" type="Transpose" version="opset1">
			<input>
				<port id="0" precision="FP32">
					<dim>-1</dim>
					<dim>-1</dim>
					<dim>20</dim>
					<dim>64</dim>
				</port>
				<port id="1" precision="I32">
					<dim>4</dim>
				</port>
			</input>
			<output>
				<port id="2" precision="FP32" names="283">
					<dim>-1</dim>
					<dim>20</dim>
					<dim>-1</dim>
					<dim>64</dim>
				</port>
			</output>
		</layer>
		<layer id="245" name="__module.layers.1.self_attn/aten::reshape/Reshape_1" type="Reshape" version="opset1">
			<data special_zero="false" />
			<input>
				<port id="0" precision="FP32">
					<dim>-1</dim>
					<dim>20</dim>
					<dim>-1</dim>
					<dim>64</dim>
				</port>
				<port id="1" precision="I64">
					<dim>3</dim>
				</port>
			</input>
			<output>
				<port id="2" precision="FP32" names="298">
					<dim>-1</dim>
					<dim>-1</dim>
					<dim>64</dim>
				</port>
			</output>
		</layer>
		<layer id="246" name="__module.layers.1.self_attn/aten::bmm/MatMul_1" type="MatMul" version="opset1">
			<data transpose_a="false" transpose_b="false" />
			<input>
				<port id="0" precision="FP32">
					<dim>-1</dim>
					<dim>-1</dim>
					<dim>-1</dim>
				</port>
				<port id="1" precision="FP32">
					<dim>-1</dim>
					<dim>-1</dim>
					<dim>64</dim>
				</port>
			</input>
			<output>
				<port id="2" precision="FP32" names="303,attn_output.7">
					<dim>-1</dim>
					<dim>-1</dim>
					<dim>64</dim>
				</port>
			</output>
		</layer>
		<layer id="247" name="Constant_82302" type="Const" version="opset1">
			<data element_type="i64" shape="1" offset="33797320" size="8" />
			<rt_info>
				<attribute name="precise" version="0" />
			</rt_info>
			<output>
				<port id="0" precision="I64">
					<dim>1</dim>
				</port>
			</output>
		</layer>
		<layer id="248" name="__module.layers.1.self_attn/aten::size/Constant_1" type="Const" version="opset1">
			<data element_type="i32" shape="" offset="10734148" size="4" />
			<rt_info>
				<attribute name="precise" version="0" />
			</rt_info>
			<output>
				<port id="0" precision="I32" />
			</output>
		</layer>
		<layer id="249" name="__module.layers.1.self_attn/aten::size/Gather_1" type="Gather" version="opset8">
			<data batch_dims="0" />
			<input>
				<port id="0" precision="I64">
					<dim>3</dim>
				</port>
				<port id="1" precision="I64">
					<dim>1</dim>
				</port>
				<port id="2" precision="I32" />
			</input>
			<output>
				<port id="3" precision="I64" names="267">
					<dim>1</dim>
				</port>
			</output>
		</layer>
		<layer id="250" name="__module.layers.1.self_attn/prim::ListConstruct/Concat_6" type="Concat" version="opset1">
			<data axis="0" />
			<input>
				<port id="0" precision="I64">
					<dim>1</dim>
				</port>
				<port id="1" precision="I64">
					<dim>1</dim>
				</port>
				<port id="2" precision="I64">
					<dim>1</dim>
				</port>
				<port id="3" precision="I64">
					<dim>1</dim>
				</port>
			</input>
			<output>
				<port id="4" precision="I64" names="304">
					<dim>4</dim>
				</port>
			</output>
		</layer>
		<layer id="251" name="__module.layers.1.self_attn/aten::view/Reshape_4" type="Reshape" version="opset1">
			<data special_zero="false" />
			<input>
				<port id="0" precision="FP32">
					<dim>-1</dim>
					<dim>-1</dim>
					<dim>64</dim>
				</port>
				<port id="1" precision="I64">
					<dim>4</dim>
				</port>
			</input>
			<output>
				<port id="2" precision="FP32" names="305,attn_output.9">
					<dim>-1</dim>
					<dim>20</dim>
					<dim>1500</dim>
					<dim>64</dim>
				</port>
			</output>
		</layer>
		<layer id="252" name="__module.layers.1.self_attn/aten::transpose/ScatterElementsUpdate_4" type="Const" version="opset1">
			<data element_type="i32" shape="4" offset="10734176" size="16" />
			<output>
				<port id="0" precision="I32">
					<dim>4</dim>
				</port>
			</output>
		</layer>
		<layer id="253" name="__module.layers.1.self_attn/aten::transpose/Transpose_4" type="Transpose" version="opset1">
			<input>
				<port id="0" precision="FP32">
					<dim>-1</dim>
					<dim>20</dim>
					<dim>1500</dim>
					<dim>64</dim>
				</port>
				<port id="1" precision="I32">
					<dim>4</dim>
				</port>
			</input>
			<output>
				<port id="2" precision="FP32" names="306,attn_output.11">
					<dim>-1</dim>
					<dim>1500</dim>
					<dim>20</dim>
					<dim>64</dim>
				</port>
			</output>
		</layer>
		<layer id="254" name="__module.layers.1.self_attn/prim::ListConstruct/Reshape_1_7" type="Const" version="opset1">
			<data element_type="i64" shape="1" offset="14023808" size="8" />
			<rt_info>
				<attribute name="precise" version="0" />
			</rt_info>
			<output>
				<port id="0" precision="I64">
					<dim>1</dim>
				</port>
			</output>
		</layer>
		<layer id="255" name="__module.layers.1.self_attn/prim::ListConstruct/Concat_7" type="Concat" version="opset1">
			<data axis="0" />
			<input>
				<port id="0" precision="I64">
					<dim>2</dim>
				</port>
				<port id="1" precision="I64">
					<dim>1</dim>
				</port>
			</input>
			<output>
				<port id="2" precision="I64" names="307">
					<dim>3</dim>
				</port>
			</output>
		</layer>
		<layer id="256" name="__module.layers.1.self_attn/aten::reshape/Reshape_2" type="Reshape" version="opset1">
			<data special_zero="false" />
			<input>
				<port id="0" precision="FP32">
					<dim>-1</dim>
					<dim>1500</dim>
					<dim>20</dim>
					<dim>64</dim>
				</port>
				<port id="1" precision="I64">
					<dim>3</dim>
				</port>
			</input>
			<output>
				<port id="2" precision="FP32" names="308">
					<dim>-1</dim>
					<dim>1500</dim>
					<dim>1280</dim>
				</port>
			</output>
		</layer>
		<layer id="257" name="__module.layers.1.self_attn/aten::reshape/Reshape_2_0_0/nncf_smooth_quant/scale" type="Const" version="opset1">
			<data element_type="f32" shape="1, 1, 1280" offset="33797328" size="5120" />
			<output>
				<port id="0" precision="FP32">
					<dim>1</dim>
					<dim>1</dim>
					<dim>1280</dim>
				</port>
			</output>
		</layer>
		<layer id="258" name="__module.layers.1.self_attn/aten::reshape/Reshape_2_0_0/nncf_smooth_quant" type="Multiply" version="opset1">
			<data auto_broadcast="numpy" />
			<input>
				<port id="0" precision="FP32">
					<dim>-1</dim>
					<dim>1500</dim>
					<dim>1280</dim>
				</port>
				<port id="1" precision="FP32">
					<dim>1</dim>
					<dim>1</dim>
					<dim>1280</dim>
				</port>
			</input>
			<output>
				<port id="2" precision="FP32">
					<dim>-1</dim>
					<dim>1500</dim>
					<dim>1280</dim>
				</port>
			</output>
		</layer>
		<layer id="259" name="__module.layers.1.self_attn/aten::reshape/Reshape_2_0_0/nncf_smooth_quant/fq_output_0/input_low" type="Const" version="opset1">
			<data element_type="f32" shape="" offset="33802448" size="4" />
			<output>
				<port id="0" precision="FP32" />
			</output>
		</layer>
		<layer id="260" name="__module.layers.1.self_attn/aten::reshape/Reshape_2_0_0/nncf_smooth_quant/fq_output_0/input_high" type="Const" version="opset1">
			<data element_type="f32" shape="" offset="33802452" size="4" />
			<output>
				<port id="0" precision="FP32" />
			</output>
		</layer>
		<layer id="261" name="__module.layers.1.self_attn/aten::reshape/Reshape_2_0_0/nncf_smooth_quant/fq_output_0/output_low" type="Const" version="opset1">
			<data element_type="f32" shape="" offset="33802448" size="4" />
			<output>
				<port id="0" precision="FP32" />
			</output>
		</layer>
		<layer id="262" name="__module.layers.1.self_attn/aten::reshape/Reshape_2_0_0/nncf_smooth_quant/fq_output_0/output_high" type="Const" version="opset1">
			<data element_type="f32" shape="" offset="33802452" size="4" />
			<output>
				<port id="0" precision="FP32" />
			</output>
		</layer>
		<layer id="263" name="__module.layers.1.self_attn/aten::reshape/Reshape_2_0_0/nncf_smooth_quant/fq_output_0" type="FakeQuantize" version="opset1">
			<data levels="256" auto_broadcast="numpy" />
			<input>
				<port id="0" precision="FP32">
					<dim>-1</dim>
					<dim>1500</dim>
					<dim>1280</dim>
				</port>
				<port id="1" precision="FP32" />
				<port id="2" precision="FP32" />
				<port id="3" precision="FP32" />
				<port id="4" precision="FP32" />
			</input>
			<output>
				<port id="5" precision="FP32">
					<dim>-1</dim>
					<dim>1500</dim>
					<dim>1280</dim>
				</port>
			</output>
		</layer>
		<layer id="264" name="Constant_1707810" type="Const" version="opset1">
			<data element_type="i8" shape="1280, 1280" offset="33802456" size="1638400" />
			<output>
				<port id="0" precision="I8">
					<dim>1280</dim>
					<dim>1280</dim>
				</port>
			</output>
		</layer>
		<layer id="265" name="Convert_1707811" type="Convert" version="opset1">
			<data destination_type="f32" />
			<input>
				<port id="0" precision="I8">
					<dim>1280</dim>
					<dim>1280</dim>
				</port>
			</input>
			<output>
				<port id="1" precision="FP32">
					<dim>1280</dim>
					<dim>1280</dim>
				</port>
			</output>
		</layer>
		<layer id="266" name="Constant_1707812" type="Const" version="opset1">
			<data element_type="f32" shape="1280, 1" offset="35440856" size="5120" />
			<output>
				<port id="0" precision="FP32">
					<dim>1280</dim>
					<dim>1</dim>
				</port>
			</output>
		</layer>
		<layer id="267" name="__module.layers.1.self_attn.out_proj/aten::linear/MatMul/fq_weights_1" type="Multiply" version="opset1">
			<data auto_broadcast="numpy" />
			<input>
				<port id="0" precision="FP32">
					<dim>1280</dim>
					<dim>1280</dim>
				</port>
				<port id="1" precision="FP32">
					<dim>1280</dim>
					<dim>1</dim>
				</port>
			</input>
			<output>
				<port id="2" precision="FP32">
					<dim>1280</dim>
					<dim>1280</dim>
				</port>
			</output>
		</layer>
		<layer id="268" name="__module.layers.1.self_attn.out_proj/aten::linear/MatMul" type="MatMul" version="opset1">
			<data transpose_a="false" transpose_b="true" />
			<input>
				<port id="0" precision="FP32">
					<dim>-1</dim>
					<dim>1500</dim>
					<dim>1280</dim>
				</port>
				<port id="1" precision="FP32">
					<dim>1280</dim>
					<dim>1280</dim>
				</port>
			</input>
			<output>
				<port id="2" precision="FP32">
					<dim>-1</dim>
					<dim>1500</dim>
					<dim>1280</dim>
				</port>
			</output>
		</layer>
		<layer id="269" name="Constant_84542_compressed" type="Const" version="opset1">
			<data element_type="f16" shape="1, 1, 1280" offset="35445976" size="2560" />
			<output>
				<port id="0" precision="FP16">
					<dim>1</dim>
					<dim>1</dim>
					<dim>1280</dim>
				</port>
			</output>
		</layer>
		<layer id="270" name="Constant_84542" type="Convert" version="opset1">
			<data destination_type="f32" />
			<rt_info>
				<attribute name="decompression" version="0" />
			</rt_info>
			<input>
				<port id="0" precision="FP16">
					<dim>1</dim>
					<dim>1</dim>
					<dim>1280</dim>
				</port>
			</input>
			<output>
				<port id="1" precision="FP32">
					<dim>1</dim>
					<dim>1</dim>
					<dim>1280</dim>
				</port>
			</output>
		</layer>
		<layer id="271" name="__module.layers.1.self_attn.out_proj/aten::linear/Add" type="Add" version="opset1">
			<data auto_broadcast="numpy" />
			<input>
				<port id="0" precision="FP32">
					<dim>-1</dim>
					<dim>1500</dim>
					<dim>1280</dim>
				</port>
				<port id="1" precision="FP32">
					<dim>1</dim>
					<dim>1</dim>
					<dim>1280</dim>
				</port>
			</input>
			<output>
				<port id="2" precision="FP32" names="311,input.13">
					<dim>-1</dim>
					<dim>1500</dim>
					<dim>1280</dim>
				</port>
			</output>
		</layer>
		<layer id="272" name="__module.layers.1/aten::add/Add" type="Add" version="opset1">
			<data auto_broadcast="numpy" />
			<input>
				<port id="0" precision="FP32">
					<dim>-1</dim>
					<dim>1500</dim>
					<dim>1280</dim>
				</port>
				<port id="1" precision="FP32">
					<dim>-1</dim>
					<dim>1500</dim>
					<dim>1280</dim>
				</port>
			</input>
			<output>
				<port id="2" precision="FP32" names="313,residual.7">
					<dim>-1</dim>
					<dim>1500</dim>
					<dim>1280</dim>
				</port>
			</output>
		</layer>
		<layer id="273" name="__module.layers.1.final_layer_norm/aten::layer_norm/Constant" type="Const" version="opset1">
			<data element_type="i32" shape="1" offset="9077800" size="4" />
			<output>
				<port id="0" precision="I32">
					<dim>1</dim>
				</port>
			</output>
		</layer>
		<layer id="274" name="__module.layers.1.final_layer_norm/aten::layer_norm/MVN" type="MVN" version="opset6">
			<data eps="9.9999997473787516e-06" normalize_variance="true" eps_mode="INSIDE_SQRT" />
			<input>
				<port id="0" precision="FP32">
					<dim>-1</dim>
					<dim>1500</dim>
					<dim>1280</dim>
				</port>
				<port id="1" precision="I32">
					<dim>1</dim>
				</port>
			</input>
			<output>
				<port id="2" precision="FP32">
					<dim>-1</dim>
					<dim>1500</dim>
					<dim>1280</dim>
				</port>
			</output>
		</layer>
		<layer id="275" name="Constant_84543_compressed" type="Const" version="opset1">
			<data element_type="f16" shape="1, 1, 1280" offset="35448536" size="2560" />
			<output>
				<port id="0" precision="FP16">
					<dim>1</dim>
					<dim>1</dim>
					<dim>1280</dim>
				</port>
			</output>
		</layer>
		<layer id="276" name="Constant_84543" type="Convert" version="opset1">
			<data destination_type="f32" />
			<rt_info>
				<attribute name="decompression" version="0" />
			</rt_info>
			<input>
				<port id="0" precision="FP16">
					<dim>1</dim>
					<dim>1</dim>
					<dim>1280</dim>
				</port>
			</input>
			<output>
				<port id="1" precision="FP32">
					<dim>1</dim>
					<dim>1</dim>
					<dim>1280</dim>
				</port>
			</output>
		</layer>
		<layer id="277" name="__module.layers.1.final_layer_norm/aten::layer_norm/Multiply" type="Multiply" version="opset1">
			<data auto_broadcast="numpy" />
			<input>
				<port id="0" precision="FP32">
					<dim>-1</dim>
					<dim>1500</dim>
					<dim>1280</dim>
				</port>
				<port id="1" precision="FP32">
					<dim>1</dim>
					<dim>1</dim>
					<dim>1280</dim>
				</port>
			</input>
			<output>
				<port id="2" precision="FP32">
					<dim>-1</dim>
					<dim>1500</dim>
					<dim>1280</dim>
				</port>
			</output>
		</layer>
		<layer id="278" name="Constant_84544_compressed" type="Const" version="opset1">
			<data element_type="f16" shape="1, 1, 1280" offset="35451096" size="2560" />
			<output>
				<port id="0" precision="FP16">
					<dim>1</dim>
					<dim>1</dim>
					<dim>1280</dim>
				</port>
			</output>
		</layer>
		<layer id="279" name="Constant_84544" type="Convert" version="opset1">
			<data destination_type="f32" />
			<rt_info>
				<attribute name="decompression" version="0" />
			</rt_info>
			<input>
				<port id="0" precision="FP16">
					<dim>1</dim>
					<dim>1</dim>
					<dim>1280</dim>
				</port>
			</input>
			<output>
				<port id="1" precision="FP32">
					<dim>1</dim>
					<dim>1</dim>
					<dim>1280</dim>
				</port>
			</output>
		</layer>
		<layer id="280" name="__module.layers.1.final_layer_norm/aten::layer_norm/Add" type="Add" version="opset1">
			<data auto_broadcast="numpy" />
			<input>
				<port id="0" precision="FP32">
					<dim>-1</dim>
					<dim>1500</dim>
					<dim>1280</dim>
				</port>
				<port id="1" precision="FP32">
					<dim>1</dim>
					<dim>1</dim>
					<dim>1280</dim>
				</port>
			</input>
			<output>
				<port id="2" precision="FP32" names="317">
					<dim>-1</dim>
					<dim>1500</dim>
					<dim>1280</dim>
				</port>
			</output>
		</layer>
		<layer id="281" name="__module.layers.1.final_layer_norm/aten::layer_norm/Add_0_0/nncf_smooth_quant/scale" type="Const" version="opset1">
			<data element_type="f32" shape="1, 1, 1280" offset="35453656" size="5120" />
			<output>
				<port id="0" precision="FP32">
					<dim>1</dim>
					<dim>1</dim>
					<dim>1280</dim>
				</port>
			</output>
		</layer>
		<layer id="282" name="__module.layers.1.final_layer_norm/aten::layer_norm/Add_0_0/nncf_smooth_quant" type="Multiply" version="opset1">
			<data auto_broadcast="numpy" />
			<input>
				<port id="0" precision="FP32">
					<dim>-1</dim>
					<dim>1500</dim>
					<dim>1280</dim>
				</port>
				<port id="1" precision="FP32">
					<dim>1</dim>
					<dim>1</dim>
					<dim>1280</dim>
				</port>
			</input>
			<output>
				<port id="2" precision="FP32">
					<dim>-1</dim>
					<dim>1500</dim>
					<dim>1280</dim>
				</port>
			</output>
		</layer>
		<layer id="283" name="__module.layers.1.final_layer_norm/aten::layer_norm/Add_0_0/nncf_smooth_quant/fq_output_0/input_low" type="Const" version="opset1">
			<data element_type="f32" shape="" offset="35458776" size="4" />
			<output>
				<port id="0" precision="FP32" />
			</output>
		</layer>
		<layer id="284" name="__module.layers.1.final_layer_norm/aten::layer_norm/Add_0_0/nncf_smooth_quant/fq_output_0/input_high" type="Const" version="opset1">
			<data element_type="f32" shape="" offset="35458780" size="4" />
			<output>
				<port id="0" precision="FP32" />
			</output>
		</layer>
		<layer id="285" name="__module.layers.1.final_layer_norm/aten::layer_norm/Add_0_0/nncf_smooth_quant/fq_output_0/output_low" type="Const" version="opset1">
			<data element_type="f32" shape="" offset="35458776" size="4" />
			<output>
				<port id="0" precision="FP32" />
			</output>
		</layer>
		<layer id="286" name="__module.layers.1.final_layer_norm/aten::layer_norm/Add_0_0/nncf_smooth_quant/fq_output_0/output_high" type="Const" version="opset1">
			<data element_type="f32" shape="" offset="35458780" size="4" />
			<output>
				<port id="0" precision="FP32" />
			</output>
		</layer>
		<layer id="287" name="__module.layers.1.final_layer_norm/aten::layer_norm/Add_0_0/nncf_smooth_quant/fq_output_0" type="FakeQuantize" version="opset1">
			<data levels="256" auto_broadcast="numpy" />
			<input>
				<port id="0" precision="FP32">
					<dim>-1</dim>
					<dim>1500</dim>
					<dim>1280</dim>
				</port>
				<port id="1" precision="FP32" />
				<port id="2" precision="FP32" />
				<port id="3" precision="FP32" />
				<port id="4" precision="FP32" />
			</input>
			<output>
				<port id="5" precision="FP32">
					<dim>-1</dim>
					<dim>1500</dim>
					<dim>1280</dim>
				</port>
			</output>
		</layer>
		<layer id="288" name="Constant_1707815" type="Const" version="opset1">
			<data element_type="i8" shape="5120, 1280" offset="35458784" size="6553600" />
			<output>
				<port id="0" precision="I8">
					<dim>5120</dim>
					<dim>1280</dim>
				</port>
			</output>
		</layer>
		<layer id="289" name="Convert_1707816" type="Convert" version="opset1">
			<data destination_type="f32" />
			<input>
				<port id="0" precision="I8">
					<dim>5120</dim>
					<dim>1280</dim>
				</port>
			</input>
			<output>
				<port id="1" precision="FP32">
					<dim>5120</dim>
					<dim>1280</dim>
				</port>
			</output>
		</layer>
		<layer id="290" name="Constant_1707817" type="Const" version="opset1">
			<data element_type="f32" shape="5120, 1" offset="42012384" size="20480" />
			<output>
				<port id="0" precision="FP32">
					<dim>5120</dim>
					<dim>1</dim>
				</port>
			</output>
		</layer>
		<layer id="291" name="__module.layers.1.fc1/aten::linear/MatMul/fq_weights_1" type="Multiply" version="opset1">
			<data auto_broadcast="numpy" />
			<input>
				<port id="0" precision="FP32">
					<dim>5120</dim>
					<dim>1280</dim>
				</port>
				<port id="1" precision="FP32">
					<dim>5120</dim>
					<dim>1</dim>
				</port>
			</input>
			<output>
				<port id="2" precision="FP32">
					<dim>5120</dim>
					<dim>1280</dim>
				</port>
			</output>
		</layer>
		<layer id="292" name="__module.layers.1.fc1/aten::linear/MatMul" type="MatMul" version="opset1">
			<data transpose_a="false" transpose_b="true" />
			<input>
				<port id="0" precision="FP32">
					<dim>-1</dim>
					<dim>1500</dim>
					<dim>1280</dim>
				</port>
				<port id="1" precision="FP32">
					<dim>5120</dim>
					<dim>1280</dim>
				</port>
			</input>
			<output>
				<port id="2" precision="FP32">
					<dim>-1</dim>
					<dim>1500</dim>
					<dim>5120</dim>
				</port>
			</output>
		</layer>
		<layer id="293" name="Constant_84545_compressed" type="Const" version="opset1">
			<data element_type="f16" shape="1, 1, 5120" offset="42032864" size="10240" />
			<output>
				<port id="0" precision="FP16">
					<dim>1</dim>
					<dim>1</dim>
					<dim>5120</dim>
				</port>
			</output>
		</layer>
		<layer id="294" name="Constant_84545" type="Convert" version="opset1">
			<data destination_type="f32" />
			<rt_info>
				<attribute name="decompression" version="0" />
			</rt_info>
			<input>
				<port id="0" precision="FP16">
					<dim>1</dim>
					<dim>1</dim>
					<dim>5120</dim>
				</port>
			</input>
			<output>
				<port id="1" precision="FP32">
					<dim>1</dim>
					<dim>1</dim>
					<dim>5120</dim>
				</port>
			</output>
		</layer>
		<layer id="295" name="__module.layers.1.fc1/aten::linear/Add" type="Add" version="opset1">
			<data auto_broadcast="numpy" />
			<input>
				<port id="0" precision="FP32">
					<dim>-1</dim>
					<dim>1500</dim>
					<dim>5120</dim>
				</port>
				<port id="1" precision="FP32">
					<dim>1</dim>
					<dim>1</dim>
					<dim>5120</dim>
				</port>
			</input>
			<output>
				<port id="2" precision="FP32" names="320">
					<dim>-1</dim>
					<dim>1500</dim>
					<dim>5120</dim>
				</port>
			</output>
		</layer>
		<layer id="296" name="__module.layers.1.activation_fn/aten::gelu/Gelu" type="Gelu" version="opset7">
			<data approximation_mode="ERF" />
			<input>
				<port id="0" precision="FP32">
					<dim>-1</dim>
					<dim>1500</dim>
					<dim>5120</dim>
				</port>
			</input>
			<output>
				<port id="1" precision="FP32" names="321,input.15">
					<dim>-1</dim>
					<dim>1500</dim>
					<dim>5120</dim>
				</port>
			</output>
		</layer>
		<layer id="297" name="__module.layers.1.activation_fn/aten::gelu/Gelu_0_0/nncf_smooth_quant/scale" type="Const" version="opset1">
			<data element_type="f32" shape="1, 1, 5120" offset="42043104" size="20480" />
			<output>
				<port id="0" precision="FP32">
					<dim>1</dim>
					<dim>1</dim>
					<dim>5120</dim>
				</port>
			</output>
		</layer>
		<layer id="298" name="__module.layers.1.activation_fn/aten::gelu/Gelu_0_0/nncf_smooth_quant" type="Multiply" version="opset1">
			<data auto_broadcast="numpy" />
			<input>
				<port id="0" precision="FP32">
					<dim>-1</dim>
					<dim>1500</dim>
					<dim>5120</dim>
				</port>
				<port id="1" precision="FP32">
					<dim>1</dim>
					<dim>1</dim>
					<dim>5120</dim>
				</port>
			</input>
			<output>
				<port id="2" precision="FP32">
					<dim>-1</dim>
					<dim>1500</dim>
					<dim>5120</dim>
				</port>
			</output>
		</layer>
		<layer id="299" name="__module.layers.1.activation_fn/aten::gelu/Gelu_0_0/nncf_smooth_quant/fq_output_0/input_low" type="Const" version="opset1">
			<data element_type="f32" shape="" offset="42063584" size="4" />
			<output>
				<port id="0" precision="FP32" />
			</output>
		</layer>
		<layer id="300" name="__module.layers.1.activation_fn/aten::gelu/Gelu_0_0/nncf_smooth_quant/fq_output_0/input_high" type="Const" version="opset1">
			<data element_type="f32" shape="" offset="42063588" size="4" />
			<output>
				<port id="0" precision="FP32" />
			</output>
		</layer>
		<layer id="301" name="__module.layers.1.activation_fn/aten::gelu/Gelu_0_0/nncf_smooth_quant/fq_output_0/output_low" type="Const" version="opset1">
			<data element_type="f32" shape="" offset="42063584" size="4" />
			<output>
				<port id="0" precision="FP32" />
			</output>
		</layer>
		<layer id="302" name="__module.layers.1.activation_fn/aten::gelu/Gelu_0_0/nncf_smooth_quant/fq_output_0/output_high" type="Const" version="opset1">
			<data element_type="f32" shape="" offset="42063588" size="4" />
			<output>
				<port id="0" precision="FP32" />
			</output>
		</layer>
		<layer id="303" name="__module.layers.1.activation_fn/aten::gelu/Gelu_0_0/nncf_smooth_quant/fq_output_0" type="FakeQuantize" version="opset1">
			<data levels="256" auto_broadcast="numpy" />
			<input>
				<port id="0" precision="FP32">
					<dim>-1</dim>
					<dim>1500</dim>
					<dim>5120</dim>
				</port>
				<port id="1" precision="FP32" />
				<port id="2" precision="FP32" />
				<port id="3" precision="FP32" />
				<port id="4" precision="FP32" />
			</input>
			<output>
				<port id="5" precision="FP32">
					<dim>-1</dim>
					<dim>1500</dim>
					<dim>5120</dim>
				</port>
			</output>
		</layer>
		<layer id="304" name="Constant_1707820" type="Const" version="opset1">
			<data element_type="i8" shape="1280, 5120" offset="42063592" size="6553600" />
			<output>
				<port id="0" precision="I8">
					<dim>1280</dim>
					<dim>5120</dim>
				</port>
			</output>
		</layer>
		<layer id="305" name="Convert_1707821" type="Convert" version="opset1">
			<data destination_type="f32" />
			<input>
				<port id="0" precision="I8">
					<dim>1280</dim>
					<dim>5120</dim>
				</port>
			</input>
			<output>
				<port id="1" precision="FP32">
					<dim>1280</dim>
					<dim>5120</dim>
				</port>
			</output>
		</layer>
		<layer id="306" name="Constant_1707822" type="Const" version="opset1">
			<data element_type="f32" shape="1280, 1" offset="48617192" size="5120" />
			<output>
				<port id="0" precision="FP32">
					<dim>1280</dim>
					<dim>1</dim>
				</port>
			</output>
		</layer>
		<layer id="307" name="__module.layers.1.fc2/aten::linear/MatMul/fq_weights_1" type="Multiply" version="opset1">
			<data auto_broadcast="numpy" />
			<input>
				<port id="0" precision="FP32">
					<dim>1280</dim>
					<dim>5120</dim>
				</port>
				<port id="1" precision="FP32">
					<dim>1280</dim>
					<dim>1</dim>
				</port>
			</input>
			<output>
				<port id="2" precision="FP32">
					<dim>1280</dim>
					<dim>5120</dim>
				</port>
			</output>
		</layer>
		<layer id="308" name="__module.layers.1.fc2/aten::linear/MatMul" type="MatMul" version="opset1">
			<data transpose_a="false" transpose_b="true" />
			<input>
				<port id="0" precision="FP32">
					<dim>-1</dim>
					<dim>1500</dim>
					<dim>5120</dim>
				</port>
				<port id="1" precision="FP32">
					<dim>1280</dim>
					<dim>5120</dim>
				</port>
			</input>
			<output>
				<port id="2" precision="FP32">
					<dim>-1</dim>
					<dim>1500</dim>
					<dim>1280</dim>
				</port>
			</output>
		</layer>
		<layer id="309" name="Constant_84546_compressed" type="Const" version="opset1">
			<data element_type="f16" shape="1, 1, 1280" offset="48622312" size="2560" />
			<output>
				<port id="0" precision="FP16">
					<dim>1</dim>
					<dim>1</dim>
					<dim>1280</dim>
				</port>
			</output>
		</layer>
		<layer id="310" name="Constant_84546" type="Convert" version="opset1">
			<data destination_type="f32" />
			<rt_info>
				<attribute name="decompression" version="0" />
			</rt_info>
			<input>
				<port id="0" precision="FP16">
					<dim>1</dim>
					<dim>1</dim>
					<dim>1280</dim>
				</port>
			</input>
			<output>
				<port id="1" precision="FP32">
					<dim>1</dim>
					<dim>1</dim>
					<dim>1280</dim>
				</port>
			</output>
		</layer>
		<layer id="311" name="__module.layers.1.fc2/aten::linear/Add" type="Add" version="opset1">
			<data auto_broadcast="numpy" />
			<input>
				<port id="0" precision="FP32">
					<dim>-1</dim>
					<dim>1500</dim>
					<dim>1280</dim>
				</port>
				<port id="1" precision="FP32">
					<dim>1</dim>
					<dim>1</dim>
					<dim>1280</dim>
				</port>
			</input>
			<output>
				<port id="2" precision="FP32" names="325,input.17">
					<dim>-1</dim>
					<dim>1500</dim>
					<dim>1280</dim>
				</port>
			</output>
		</layer>
		<layer id="312" name="__module.layers.1/aten::add/Add_1" type="Add" version="opset1">
			<data auto_broadcast="numpy" />
			<input>
				<port id="0" precision="FP32">
					<dim>-1</dim>
					<dim>1500</dim>
					<dim>1280</dim>
				</port>
				<port id="1" precision="FP32">
					<dim>-1</dim>
					<dim>1500</dim>
					<dim>1280</dim>
				</port>
			</input>
			<output>
				<port id="2" precision="FP32" names="327,residual.9">
					<dim>-1</dim>
					<dim>1500</dim>
					<dim>1280</dim>
				</port>
			</output>
		</layer>
		<layer id="313" name="__module.layers.2.self_attn_layer_norm/aten::layer_norm/Constant" type="Const" version="opset1">
			<data element_type="i32" shape="1" offset="9077800" size="4" />
			<output>
				<port id="0" precision="I32">
					<dim>1</dim>
				</port>
			</output>
		</layer>
		<layer id="314" name="__module.layers.2.self_attn_layer_norm/aten::layer_norm/MVN" type="MVN" version="opset6">
			<data eps="9.9999997473787516e-06" normalize_variance="true" eps_mode="INSIDE_SQRT" />
			<input>
				<port id="0" precision="FP32">
					<dim>-1</dim>
					<dim>1500</dim>
					<dim>1280</dim>
				</port>
				<port id="1" precision="I32">
					<dim>1</dim>
				</port>
			</input>
			<output>
				<port id="2" precision="FP32">
					<dim>-1</dim>
					<dim>1500</dim>
					<dim>1280</dim>
				</port>
			</output>
		</layer>
		<layer id="315" name="Constant_84547_compressed" type="Const" version="opset1">
			<data element_type="f16" shape="1, 1, 1280" offset="48624872" size="2560" />
			<output>
				<port id="0" precision="FP16">
					<dim>1</dim>
					<dim>1</dim>
					<dim>1280</dim>
				</port>
			</output>
		</layer>
		<layer id="316" name="Constant_84547" type="Convert" version="opset1">
			<data destination_type="f32" />
			<rt_info>
				<attribute name="decompression" version="0" />
			</rt_info>
			<input>
				<port id="0" precision="FP16">
					<dim>1</dim>
					<dim>1</dim>
					<dim>1280</dim>
				</port>
			</input>
			<output>
				<port id="1" precision="FP32">
					<dim>1</dim>
					<dim>1</dim>
					<dim>1280</dim>
				</port>
			</output>
		</layer>
		<layer id="317" name="__module.layers.2.self_attn_layer_norm/aten::layer_norm/Multiply" type="Multiply" version="opset1">
			<data auto_broadcast="numpy" />
			<input>
				<port id="0" precision="FP32">
					<dim>-1</dim>
					<dim>1500</dim>
					<dim>1280</dim>
				</port>
				<port id="1" precision="FP32">
					<dim>1</dim>
					<dim>1</dim>
					<dim>1280</dim>
				</port>
			</input>
			<output>
				<port id="2" precision="FP32">
					<dim>-1</dim>
					<dim>1500</dim>
					<dim>1280</dim>
				</port>
			</output>
		</layer>
		<layer id="318" name="Constant_84548_compressed" type="Const" version="opset1">
			<data element_type="f16" shape="1, 1, 1280" offset="48627432" size="2560" />
			<output>
				<port id="0" precision="FP16">
					<dim>1</dim>
					<dim>1</dim>
					<dim>1280</dim>
				</port>
			</output>
		</layer>
		<layer id="319" name="Constant_84548" type="Convert" version="opset1">
			<data destination_type="f32" />
			<rt_info>
				<attribute name="decompression" version="0" />
			</rt_info>
			<input>
				<port id="0" precision="FP16">
					<dim>1</dim>
					<dim>1</dim>
					<dim>1280</dim>
				</port>
			</input>
			<output>
				<port id="1" precision="FP32">
					<dim>1</dim>
					<dim>1</dim>
					<dim>1280</dim>
				</port>
			</output>
		</layer>
		<layer id="320" name="__module.layers.2.self_attn_layer_norm/aten::layer_norm/Add" type="Add" version="opset1">
			<data auto_broadcast="numpy" />
			<input>
				<port id="0" precision="FP32">
					<dim>-1</dim>
					<dim>1500</dim>
					<dim>1280</dim>
				</port>
				<port id="1" precision="FP32">
					<dim>1</dim>
					<dim>1</dim>
					<dim>1280</dim>
				</port>
			</input>
			<output>
				<port id="2" precision="FP32" names="352,hidden_states.13">
					<dim>-1</dim>
					<dim>1500</dim>
					<dim>1280</dim>
				</port>
			</output>
		</layer>
		<layer id="321" name="__module.layers.2.self_attn_layer_norm/aten::layer_norm/Add_0_0/nncf_smooth_quant/scale" type="Const" version="opset1">
			<data element_type="f32" shape="1, 1, 1280" offset="48629992" size="5120" />
			<output>
				<port id="0" precision="FP32">
					<dim>1</dim>
					<dim>1</dim>
					<dim>1280</dim>
				</port>
			</output>
		</layer>
		<layer id="322" name="__module.layers.2.self_attn_layer_norm/aten::layer_norm/Add_0_0/nncf_smooth_quant" type="Multiply" version="opset1">
			<data auto_broadcast="numpy" />
			<input>
				<port id="0" precision="FP32">
					<dim>-1</dim>
					<dim>1500</dim>
					<dim>1280</dim>
				</port>
				<port id="1" precision="FP32">
					<dim>1</dim>
					<dim>1</dim>
					<dim>1280</dim>
				</port>
			</input>
			<output>
				<port id="2" precision="FP32">
					<dim>-1</dim>
					<dim>1500</dim>
					<dim>1280</dim>
				</port>
			</output>
		</layer>
		<layer id="323" name="__module.layers.2.self_attn_layer_norm/aten::layer_norm/Add_0_0/nncf_smooth_quant/fq_output_0/input_low" type="Const" version="opset1">
			<data element_type="f32" shape="" offset="48635112" size="4" />
			<output>
				<port id="0" precision="FP32" />
			</output>
		</layer>
		<layer id="324" name="__module.layers.2.self_attn_layer_norm/aten::layer_norm/Add_0_0/nncf_smooth_quant/fq_output_0/input_high" type="Const" version="opset1">
			<data element_type="f32" shape="" offset="48635116" size="4" />
			<output>
				<port id="0" precision="FP32" />
			</output>
		</layer>
		<layer id="325" name="__module.layers.2.self_attn_layer_norm/aten::layer_norm/Add_0_0/nncf_smooth_quant/fq_output_0/output_low" type="Const" version="opset1">
			<data element_type="f32" shape="" offset="48635112" size="4" />
			<output>
				<port id="0" precision="FP32" />
			</output>
		</layer>
		<layer id="326" name="__module.layers.2.self_attn_layer_norm/aten::layer_norm/Add_0_0/nncf_smooth_quant/fq_output_0/output_high" type="Const" version="opset1">
			<data element_type="f32" shape="" offset="48635116" size="4" />
			<output>
				<port id="0" precision="FP32" />
			</output>
		</layer>
		<layer id="327" name="__module.layers.2.self_attn_layer_norm/aten::layer_norm/Add_0_0/nncf_smooth_quant/fq_output_0" type="FakeQuantize" version="opset1">
			<data levels="256" auto_broadcast="numpy" />
			<input>
				<port id="0" precision="FP32">
					<dim>-1</dim>
					<dim>1500</dim>
					<dim>1280</dim>
				</port>
				<port id="1" precision="FP32" />
				<port id="2" precision="FP32" />
				<port id="3" precision="FP32" />
				<port id="4" precision="FP32" />
			</input>
			<output>
				<port id="5" precision="FP32">
					<dim>-1</dim>
					<dim>1500</dim>
					<dim>1280</dim>
				</port>
			</output>
		</layer>
		<layer id="328" name="Constant_1707825" type="Const" version="opset1">
			<data element_type="i8" shape="1280, 1280" offset="48635120" size="1638400" />
			<output>
				<port id="0" precision="I8">
					<dim>1280</dim>
					<dim>1280</dim>
				</port>
			</output>
		</layer>
		<layer id="329" name="Convert_1707826" type="Convert" version="opset1">
			<data destination_type="f32" />
			<input>
				<port id="0" precision="I8">
					<dim>1280</dim>
					<dim>1280</dim>
				</port>
			</input>
			<output>
				<port id="1" precision="FP32">
					<dim>1280</dim>
					<dim>1280</dim>
				</port>
			</output>
		</layer>
		<layer id="330" name="Constant_1707827" type="Const" version="opset1">
			<data element_type="f32" shape="1280, 1" offset="50273520" size="5120" />
			<output>
				<port id="0" precision="FP32">
					<dim>1280</dim>
					<dim>1</dim>
				</port>
			</output>
		</layer>
		<layer id="331" name="Multiply_83790/fq_weights_1" type="Multiply" version="opset1">
			<data auto_broadcast="numpy" />
			<input>
				<port id="0" precision="FP32">
					<dim>1280</dim>
					<dim>1280</dim>
				</port>
				<port id="1" precision="FP32">
					<dim>1280</dim>
					<dim>1</dim>
				</port>
			</input>
			<output>
				<port id="2" precision="FP32">
					<dim>1280</dim>
					<dim>1280</dim>
				</port>
			</output>
		</layer>
		<layer id="332" name="Multiply_83790" type="MatMul" version="opset1">
			<data transpose_a="false" transpose_b="true" />
			<input>
				<port id="0" precision="FP32">
					<dim>-1</dim>
					<dim>1500</dim>
					<dim>1280</dim>
				</port>
				<port id="1" precision="FP32">
					<dim>1280</dim>
					<dim>1280</dim>
				</port>
			</input>
			<output>
				<port id="2" precision="FP32">
					<dim>-1</dim>
					<dim>1500</dim>
					<dim>1280</dim>
				</port>
			</output>
		</layer>
		<layer id="333" name="Constant_84549_compressed" type="Const" version="opset1">
			<data element_type="f16" shape="1, 1, 1280" offset="50278640" size="2560" />
			<output>
				<port id="0" precision="FP16">
					<dim>1</dim>
					<dim>1</dim>
					<dim>1280</dim>
				</port>
			</output>
		</layer>
		<layer id="334" name="Constant_84549" type="Convert" version="opset1">
			<data destination_type="f32" />
			<rt_info>
				<attribute name="decompression" version="0" />
			</rt_info>
			<input>
				<port id="0" precision="FP16">
					<dim>1</dim>
					<dim>1</dim>
					<dim>1280</dim>
				</port>
			</input>
			<output>
				<port id="1" precision="FP32">
					<dim>1</dim>
					<dim>1</dim>
					<dim>1280</dim>
				</port>
			</output>
		</layer>
		<layer id="335" name="__module.layers.2.self_attn/aten::mul/Multiply" type="Add" version="opset1">
			<data auto_broadcast="numpy" />
			<input>
				<port id="0" precision="FP32">
					<dim>-1</dim>
					<dim>1500</dim>
					<dim>1280</dim>
				</port>
				<port id="1" precision="FP32">
					<dim>1</dim>
					<dim>1</dim>
					<dim>1280</dim>
				</port>
			</input>
			<output>
				<port id="2" precision="FP32" names="363,tensor.17">
					<dim>-1</dim>
					<dim>1500</dim>
					<dim>1280</dim>
				</port>
			</output>
		</layer>
		<layer id="336" name="__module.layers.2.self_attn/aten::mul/Multiply/fq_output_0/input_low" type="Const" version="opset1">
			<data element_type="f32" shape="" offset="50281200" size="4" />
			<output>
				<port id="0" precision="FP32" />
			</output>
		</layer>
		<layer id="337" name="__module.layers.2.self_attn/aten::mul/Multiply/fq_output_0/input_high" type="Const" version="opset1">
			<data element_type="f32" shape="" offset="50281204" size="4" />
			<output>
				<port id="0" precision="FP32" />
			</output>
		</layer>
		<layer id="338" name="__module.layers.2.self_attn/aten::mul/Multiply/fq_output_0/output_low" type="Const" version="opset1">
			<data element_type="f32" shape="" offset="50281200" size="4" />
			<output>
				<port id="0" precision="FP32" />
			</output>
		</layer>
		<layer id="339" name="__module.layers.2.self_attn/aten::mul/Multiply/fq_output_0/output_high" type="Const" version="opset1">
			<data element_type="f32" shape="" offset="50281204" size="4" />
			<output>
				<port id="0" precision="FP32" />
			</output>
		</layer>
		<layer id="340" name="__module.layers.2.self_attn/aten::mul/Multiply/fq_output_0" type="FakeQuantize" version="opset1">
			<data levels="256" auto_broadcast="numpy" />
			<input>
				<port id="0" precision="FP32">
					<dim>-1</dim>
					<dim>1500</dim>
					<dim>1280</dim>
				</port>
				<port id="1" precision="FP32" />
				<port id="2" precision="FP32" />
				<port id="3" precision="FP32" />
				<port id="4" precision="FP32" />
			</input>
			<output>
				<port id="5" precision="FP32">
					<dim>-1</dim>
					<dim>1500</dim>
					<dim>1280</dim>
				</port>
			</output>
		</layer>
		<layer id="341" name="__module.layers.2.self_attn/aten::size/ShapeOf" type="ShapeOf" version="opset3">
			<data output_type="i64" />
			<input>
				<port id="0" precision="FP32">
					<dim>-1</dim>
					<dim>1500</dim>
					<dim>1280</dim>
				</port>
			</input>
			<output>
				<port id="1" precision="I64">
					<dim>3</dim>
				</port>
			</output>
		</layer>
		<layer id="342" name="Constant_145387" type="Const" version="opset1">
			<data element_type="i64" shape="2" offset="30507696" size="16" />
			<rt_info>
				<attribute name="precise" version="0" />
			</rt_info>
			<output>
				<port id="0" precision="I64">
					<dim>2</dim>
				</port>
			</output>
		</layer>
		<layer id="343" name="Constant_145388" type="Const" version="opset1">
			<data element_type="i64" shape="" offset="10734140" size="8" />
			<rt_info>
				<attribute name="precise" version="0" />
			</rt_info>
			<output>
				<port id="0" precision="I64" />
			</output>
		</layer>
		<layer id="344" name="Gather_145389" type="Gather" version="opset8">
			<data batch_dims="0" />
			<input>
				<port id="0" precision="I64">
					<dim>3</dim>
				</port>
				<port id="1" precision="I64">
					<dim>2</dim>
				</port>
				<port id="2" precision="I64" />
			</input>
			<output>
				<port id="3" precision="I64">
					<dim>2</dim>
				</port>
			</output>
		</layer>
		<layer id="345" name="__module.layers.2.self_attn/prim::ListConstruct/Reshape_1" type="Const" version="opset1">
			<data element_type="i64" shape="1" offset="10734160" size="8" />
			<rt_info>
				<attribute name="precise" version="0" />
			</rt_info>
			<output>
				<port id="0" precision="I64">
					<dim>1</dim>
				</port>
			</output>
		</layer>
		<layer id="346" name="__module.layers.2.self_attn/prim::ListConstruct/Reshape_2" type="Const" version="opset1">
			<data element_type="i64" shape="1" offset="10734168" size="8" />
			<rt_info>
				<attribute name="precise" version="0" />
			</rt_info>
			<output>
				<port id="0" precision="I64">
					<dim>1</dim>
				</port>
			</output>
		</layer>
		<layer id="347" name="__module.layers.2.self_attn/prim::ListConstruct/Concat" type="Concat" version="opset1">
			<data axis="0" />
			<input>
				<port id="0" precision="I64">
					<dim>2</dim>
				</port>
				<port id="1" precision="I64">
					<dim>1</dim>
				</port>
				<port id="2" precision="I64">
					<dim>1</dim>
				</port>
			</input>
			<output>
				<port id="3" precision="I64" names="381">
					<dim>4</dim>
				</port>
			</output>
		</layer>
		<layer id="348" name="__module.layers.2.self_attn/aten::view/Reshape" type="Reshape" version="opset1">
			<data special_zero="false" />
			<input>
				<port id="0" precision="FP32">
					<dim>-1</dim>
					<dim>1500</dim>
					<dim>1280</dim>
				</port>
				<port id="1" precision="I64">
					<dim>4</dim>
				</port>
			</input>
			<output>
				<port id="2" precision="FP32" names="382">
					<dim>-1</dim>
					<dim>1500</dim>
					<dim>20</dim>
					<dim>64</dim>
				</port>
			</output>
		</layer>
		<layer id="349" name="__module.layers.2.self_attn/aten::transpose/ScatterElementsUpdate" type="Const" version="opset1">
			<data element_type="i32" shape="4" offset="10734176" size="16" />
			<output>
				<port id="0" precision="I32">
					<dim>4</dim>
				</port>
			</output>
		</layer>
		<layer id="350" name="__module.layers.2.self_attn/aten::transpose/Transpose" type="Transpose" version="opset1">
			<input>
				<port id="0" precision="FP32">
					<dim>-1</dim>
					<dim>1500</dim>
					<dim>20</dim>
					<dim>64</dim>
				</port>
				<port id="1" precision="I32">
					<dim>4</dim>
				</port>
			</input>
			<output>
				<port id="2" precision="FP32" names="383">
					<dim>-1</dim>
					<dim>20</dim>
					<dim>1500</dim>
					<dim>64</dim>
				</port>
			</output>
		</layer>
		<layer id="351" name="Constant_145288" type="Const" version="opset1">
			<data element_type="i64" shape="1" offset="10734140" size="8" />
			<rt_info>
				<attribute name="precise" version="0" />
			</rt_info>
			<output>
				<port id="0" precision="I64">
					<dim>1</dim>
				</port>
			</output>
		</layer>
		<layer id="352" name="__module.layers.2.self_attn/aten::size/Constant" type="Const" version="opset1">
			<data element_type="i32" shape="" offset="10734148" size="4" />
			<rt_info>
				<attribute name="precise" version="0" />
			</rt_info>
			<output>
				<port id="0" precision="I32" />
			</output>
		</layer>
		<layer id="353" name="__module.layers.2.self_attn/aten::size/Gather" type="Gather" version="opset8">
			<data batch_dims="0" />
			<input>
				<port id="0" precision="I64">
					<dim>3</dim>
				</port>
				<port id="1" precision="I64">
					<dim>1</dim>
				</port>
				<port id="2" precision="I32" />
			</input>
			<output>
				<port id="3" precision="I64" names="357">
					<dim>1</dim>
				</port>
			</output>
		</layer>
		<layer id="354" name="Constant_145192" type="Const" version="opset1">
			<data element_type="i64" shape="1" offset="10734160" size="8" />
			<rt_info>
				<attribute name="precise" version="0" />
			</rt_info>
			<output>
				<port id="0" precision="I64">
					<dim>1</dim>
				</port>
			</output>
		</layer>
		<layer id="355" name="__module.layers.2.self_attn/aten::mul/Multiply_1" type="Multiply" version="opset1">
			<data auto_broadcast="numpy" />
			<input>
				<port id="0" precision="I64">
					<dim>1</dim>
				</port>
				<port id="1" precision="I64">
					<dim>1</dim>
				</port>
			</input>
			<output>
				<port id="2" precision="I64" names="377,378,379,380">
					<dim>1</dim>
				</port>
			</output>
		</layer>
		<layer id="356" name="__module.layers.2.self_attn/prim::ListConstruct/Reshape_0_1" type="Const" version="opset1">
			<data element_type="i64" shape="1" offset="10734192" size="8" />
			<rt_info>
				<attribute name="precise" version="0" />
			</rt_info>
			<output>
				<port id="0" precision="I64">
					<dim>1</dim>
				</port>
			</output>
		</layer>
		<layer id="357" name="__module.layers.2.self_attn/prim::ListConstruct/Concat_1" type="Concat" version="opset1">
			<data axis="0" />
			<input>
				<port id="0" precision="I64">
					<dim>1</dim>
				</port>
				<port id="1" precision="I64">
					<dim>1</dim>
				</port>
				<port id="2" precision="I64">
					<dim>1</dim>
				</port>
			</input>
			<output>
				<port id="3" precision="I64" names="385,387,389">
					<dim>3</dim>
				</port>
			</output>
		</layer>
		<layer id="358" name="__module.layers.2.self_attn/aten::view/Reshape_1" type="Reshape" version="opset1">
			<data special_zero="false" />
			<input>
				<port id="0" precision="FP32">
					<dim>-1</dim>
					<dim>20</dim>
					<dim>1500</dim>
					<dim>64</dim>
				</port>
				<port id="1" precision="I64">
					<dim>3</dim>
				</port>
			</input>
			<output>
				<port id="2" precision="FP32" names="386">
					<dim>-1</dim>
					<dim>-1</dim>
					<dim>64</dim>
				</port>
			</output>
		</layer>
		<layer id="359" name="Constant_1707830" type="Const" version="opset1">
			<data element_type="i8" shape="1280, 1280" offset="50281208" size="1638400" />
			<output>
				<port id="0" precision="I8">
					<dim>1280</dim>
					<dim>1280</dim>
				</port>
			</output>
		</layer>
		<layer id="360" name="Convert_1707831" type="Convert" version="opset1">
			<data destination_type="f32" />
			<input>
				<port id="0" precision="I8">
					<dim>1280</dim>
					<dim>1280</dim>
				</port>
			</input>
			<output>
				<port id="1" precision="FP32">
					<dim>1280</dim>
					<dim>1280</dim>
				</port>
			</output>
		</layer>
		<layer id="361" name="Constant_1707832" type="Const" version="opset1">
			<data element_type="f32" shape="1280, 1" offset="51919608" size="5120" />
			<output>
				<port id="0" precision="FP32">
					<dim>1280</dim>
					<dim>1</dim>
				</port>
			</output>
		</layer>
		<layer id="362" name="__module.layers.2.self_attn.k_proj/aten::linear/MatMul/fq_weights_1" type="Multiply" version="opset1">
			<data auto_broadcast="numpy" />
			<input>
				<port id="0" precision="FP32">
					<dim>1280</dim>
					<dim>1280</dim>
				</port>
				<port id="1" precision="FP32">
					<dim>1280</dim>
					<dim>1</dim>
				</port>
			</input>
			<output>
				<port id="2" precision="FP32">
					<dim>1280</dim>
					<dim>1280</dim>
				</port>
			</output>
		</layer>
		<layer id="363" name="__module.layers.2.self_attn.k_proj/aten::linear/MatMul" type="MatMul" version="opset1">
			<data transpose_a="false" transpose_b="true" />
			<input>
				<port id="0" precision="FP32">
					<dim>-1</dim>
					<dim>1500</dim>
					<dim>1280</dim>
				</port>
				<port id="1" precision="FP32">
					<dim>1280</dim>
					<dim>1280</dim>
				</port>
			</input>
			<output>
				<port id="2" precision="FP32" names="365,tensor.13">
					<dim>-1</dim>
					<dim>1500</dim>
					<dim>1280</dim>
				</port>
			</output>
		</layer>
		<layer id="364" name="__module.layers.2.self_attn.k_proj/aten::linear/MatMul/fq_output_0/input_low" type="Const" version="opset1">
			<data element_type="f32" shape="" offset="51924728" size="4" />
			<output>
				<port id="0" precision="FP32" />
			</output>
		</layer>
		<layer id="365" name="__module.layers.2.self_attn.k_proj/aten::linear/MatMul/fq_output_0/input_high" type="Const" version="opset1">
			<data element_type="f32" shape="" offset="51924732" size="4" />
			<output>
				<port id="0" precision="FP32" />
			</output>
		</layer>
		<layer id="366" name="__module.layers.2.self_attn.k_proj/aten::linear/MatMul/fq_output_0/output_low" type="Const" version="opset1">
			<data element_type="f32" shape="" offset="51924728" size="4" />
			<output>
				<port id="0" precision="FP32" />
			</output>
		</layer>
		<layer id="367" name="__module.layers.2.self_attn.k_proj/aten::linear/MatMul/fq_output_0/output_high" type="Const" version="opset1">
			<data element_type="f32" shape="" offset="51924732" size="4" />
			<output>
				<port id="0" precision="FP32" />
			</output>
		</layer>
		<layer id="368" name="__module.layers.2.self_attn.k_proj/aten::linear/MatMul/fq_output_0" type="FakeQuantize" version="opset1">
			<data levels="256" auto_broadcast="numpy" />
			<input>
				<port id="0" precision="FP32">
					<dim>-1</dim>
					<dim>1500</dim>
					<dim>1280</dim>
				</port>
				<port id="1" precision="FP32" />
				<port id="2" precision="FP32" />
				<port id="3" precision="FP32" />
				<port id="4" precision="FP32" />
			</input>
			<output>
				<port id="5" precision="FP32">
					<dim>-1</dim>
					<dim>1500</dim>
					<dim>1280</dim>
				</port>
			</output>
		</layer>
		<layer id="369" name="__module.layers.2.self_attn/prim::ListConstruct/Concat_2" type="Concat" version="opset1">
			<data axis="0" />
			<input>
				<port id="0" precision="I64">
					<dim>1</dim>
				</port>
				<port id="1" precision="I64">
					<dim>1</dim>
				</port>
				<port id="2" precision="I64">
					<dim>1</dim>
				</port>
				<port id="3" precision="I64">
					<dim>1</dim>
				</port>
			</input>
			<output>
				<port id="4" precision="I64" names="366,373">
					<dim>4</dim>
				</port>
			</output>
		</layer>
		<layer id="370" name="__module.layers.2.self_attn/aten::view/Reshape_2" type="Reshape" version="opset1">
			<data special_zero="false" />
			<input>
				<port id="0" precision="FP32">
					<dim>-1</dim>
					<dim>1500</dim>
					<dim>1280</dim>
				</port>
				<port id="1" precision="I64">
					<dim>4</dim>
				</port>
			</input>
			<output>
				<port id="2" precision="FP32" names="367">
					<dim>-1</dim>
					<dim>-1</dim>
					<dim>20</dim>
					<dim>64</dim>
				</port>
			</output>
		</layer>
		<layer id="371" name="__module.layers.2.self_attn/aten::transpose/ScatterElementsUpdate_1" type="Const" version="opset1">
			<data element_type="i32" shape="4" offset="10734176" size="16" />
			<output>
				<port id="0" precision="I32">
					<dim>4</dim>
				</port>
			</output>
		</layer>
		<layer id="372" name="__module.layers.2.self_attn/aten::transpose/Transpose_1" type="Transpose" version="opset1">
			<input>
				<port id="0" precision="FP32">
					<dim>-1</dim>
					<dim>-1</dim>
					<dim>20</dim>
					<dim>64</dim>
				</port>
				<port id="1" precision="I32">
					<dim>4</dim>
				</port>
			</input>
			<output>
				<port id="2" precision="FP32" names="368">
					<dim>-1</dim>
					<dim>20</dim>
					<dim>-1</dim>
					<dim>64</dim>
				</port>
			</output>
		</layer>
		<layer id="373" name="__module.layers.2.self_attn/aten::reshape/Reshape" type="Reshape" version="opset1">
			<data special_zero="false" />
			<input>
				<port id="0" precision="FP32">
					<dim>-1</dim>
					<dim>20</dim>
					<dim>-1</dim>
					<dim>64</dim>
				</port>
				<port id="1" precision="I64">
					<dim>3</dim>
				</port>
			</input>
			<output>
				<port id="2" precision="FP32" names="388,key_states.11">
					<dim>-1</dim>
					<dim>-1</dim>
					<dim>64</dim>
				</port>
			</output>
		</layer>
		<layer id="374" name="__module.layers.2.self_attn/aten::bmm/MatMul" type="MatMul" version="opset1">
			<data transpose_a="false" transpose_b="true" />
			<input>
				<port id="0" precision="FP32">
					<dim>-1</dim>
					<dim>-1</dim>
					<dim>64</dim>
				</port>
				<port id="1" precision="FP32">
					<dim>-1</dim>
					<dim>-1</dim>
					<dim>64</dim>
				</port>
			</input>
			<output>
				<port id="2" precision="FP32" names="392,attn_weights.5">
					<dim>-1</dim>
					<dim>-1</dim>
					<dim>-1</dim>
				</port>
			</output>
		</layer>
		<layer id="375" name="__module.layers.2.self_attn/aten::softmax/Softmax" type="SoftMax" version="opset8">
			<data axis="-1" />
			<input>
				<port id="0" precision="FP32">
					<dim>-1</dim>
					<dim>-1</dim>
					<dim>-1</dim>
				</port>
			</input>
			<output>
…
		<edge from-layer="3977" from-port="0" to-layer="3979" to-port="3" />
		<edge from-layer="3978" from-port="0" to-layer="3979" to-port="4" />
		<edge from-layer="3979" from-port="5" to-layer="3984" to-port="0" />
		<edge from-layer="3980" from-port="0" to-layer="3981" to-port="0" />
		<edge from-layer="3981" from-port="1" to-layer="3983" to-port="0" />
		<edge from-layer="3982" from-port="0" to-layer="3983" to-port="1" />
		<edge from-layer="3983" from-port="2" to-layer="3984" to-port="1" />
		<edge from-layer="3984" from-port="2" to-layer="3987" to-port="0" />
		<edge from-layer="3985" from-port="0" to-layer="3986" to-port="0" />
		<edge from-layer="3986" from-port="1" to-layer="3987" to-port="1" />
		<edge from-layer="3987" from-port="2" to-layer="3988" to-port="0" />
		<edge from-layer="3988" from-port="1" to-layer="3990" to-port="0" />
		<edge from-layer="3989" from-port="0" to-layer="3990" to-port="1" />
		<edge from-layer="3990" from-port="2" to-layer="3995" to-port="0" />
		<edge from-layer="3991" from-port="0" to-layer="3995" to-port="1" />
		<edge from-layer="3992" from-port="0" to-layer="3995" to-port="2" />
		<edge from-layer="3993" from-port="0" to-layer="3995" to-port="3" />
		<edge from-layer="3994" from-port="0" to-layer="3995" to-port="4" />
		<edge from-layer="3995" from-port="5" to-layer="4000" to-port="0" />
		<edge from-layer="3996" from-port="0" to-layer="3997" to-port="0" />
		<edge from-layer="3997" from-port="1" to-layer="3999" to-port="0" />
		<edge from-layer="3998" from-port="0" to-layer="3999" to-port="1" />
		<edge from-layer="3999" from-port="2" to-layer="4000" to-port="1" />
		<edge from-layer="4000" from-port="2" to-layer="4003" to-port="0" />
		<edge from-layer="4001" from-port="0" to-layer="4002" to-port="0" />
		<edge from-layer="4002" from-port="1" to-layer="4003" to-port="1" />
		<edge from-layer="4003" from-port="2" to-layer="4004" to-port="1" />
		<edge from-layer="4004" from-port="2" to-layer="4006" to-port="0" />
		<edge from-layer="4004" from-port="2" to-layer="4106" to-port="0" />
		<edge from-layer="4005" from-port="0" to-layer="4006" to-port="1" />
		<edge from-layer="4006" from-port="2" to-layer="4009" to-port="0" />
		<edge from-layer="4007" from-port="0" to-layer="4008" to-port="0" />
		<edge from-layer="4008" from-port="1" to-layer="4009" to-port="1" />
		<edge from-layer="4009" from-port="2" to-layer="4012" to-port="0" />
		<edge from-layer="4010" from-port="0" to-layer="4011" to-port="0" />
		<edge from-layer="4011" from-port="1" to-layer="4012" to-port="1" />
		<edge from-layer="4012" from-port="2" to-layer="4014" to-port="0" />
		<edge from-layer="4012" from-port="2" to-layer="4033" to-port="0" />
		<edge from-layer="4013" from-port="0" to-layer="4014" to-port="1" />
		<edge from-layer="4014" from-port="2" to-layer="4019" to-port="0" />
		<edge from-layer="4015" from-port="0" to-layer="4019" to-port="1" />
		<edge from-layer="4016" from-port="0" to-layer="4019" to-port="2" />
		<edge from-layer="4017" from-port="0" to-layer="4019" to-port="3" />
		<edge from-layer="4018" from-port="0" to-layer="4019" to-port="4" />
		<edge from-layer="4019" from-port="5" to-layer="4024" to-port="0" />
		<edge from-layer="4019" from-port="5" to-layer="4055" to-port="0" />
		<edge from-layer="4019" from-port="5" to-layer="4072" to-port="0" />
		<edge from-layer="4020" from-port="0" to-layer="4021" to-port="0" />
		<edge from-layer="4021" from-port="1" to-layer="4023" to-port="0" />
		<edge from-layer="4022" from-port="0" to-layer="4023" to-port="1" />
		<edge from-layer="4023" from-port="2" to-layer="4024" to-port="1" />
		<edge from-layer="4024" from-port="2" to-layer="4027" to-port="0" />
		<edge from-layer="4025" from-port="0" to-layer="4026" to-port="0" />
		<edge from-layer="4026" from-port="1" to-layer="4027" to-port="1" />
		<edge from-layer="4027" from-port="2" to-layer="4032" to-port="0" />
		<edge from-layer="4028" from-port="0" to-layer="4032" to-port="1" />
		<edge from-layer="4029" from-port="0" to-layer="4032" to-port="2" />
		<edge from-layer="4030" from-port="0" to-layer="4032" to-port="3" />
		<edge from-layer="4031" from-port="0" to-layer="4032" to-port="4" />
		<edge from-layer="4032" from-port="5" to-layer="4040" to-port="0" />
		<edge from-layer="4033" from-port="1" to-layer="4045" to-port="0" />
		<edge from-layer="4033" from-port="1" to-layer="4083" to-port="0" />
		<edge from-layer="4033" from-port="1" to-layer="4036" to-port="0" />
		<edge from-layer="4034" from-port="0" to-layer="4036" to-port="1" />
		<edge from-layer="4035" from-port="0" to-layer="4036" to-port="2" />
		<edge from-layer="4036" from-port="3" to-layer="4089" to-port="0" />
		<edge from-layer="4036" from-port="3" to-layer="4039" to-port="0" />
		<edge from-layer="4037" from-port="0" to-layer="4039" to-port="1" />
		<edge from-layer="4037" from-port="0" to-layer="4061" to-port="2" />
		<edge from-layer="4037" from-port="0" to-layer="4084" to-port="1" />
		<edge from-layer="4038" from-port="0" to-layer="4049" to-port="2" />
		<edge from-layer="4038" from-port="0" to-layer="4061" to-port="3" />
		<edge from-layer="4038" from-port="0" to-layer="4084" to-port="3" />
		<edge from-layer="4038" from-port="0" to-layer="4039" to-port="2" />
		<edge from-layer="4039" from-port="3" to-layer="4040" to-port="1" />
		<edge from-layer="4040" from-port="2" to-layer="4042" to-port="0" />
		<edge from-layer="4041" from-port="0" to-layer="4042" to-port="1" />
		<edge from-layer="4042" from-port="2" to-layer="4050" to-port="0" />
		<edge from-layer="4043" from-port="0" to-layer="4045" to-port="1" />
		<edge from-layer="4044" from-port="0" to-layer="4045" to-port="2" />
		<edge from-layer="4045" from-port="3" to-layer="4047" to-port="0" />
		<edge from-layer="4045" from-port="3" to-layer="4084" to-port="0" />
		<edge from-layer="4045" from-port="3" to-layer="4061" to-port="0" />
		<edge from-layer="4046" from-port="0" to-layer="4047" to-port="1" />
		<edge from-layer="4047" from-port="2" to-layer="4049" to-port="0" />
		<edge from-layer="4048" from-port="0" to-layer="4049" to-port="1" />
		<edge from-layer="4048" from-port="0" to-layer="4061" to-port="1" />
		<edge from-layer="4049" from-port="3" to-layer="4050" to-port="1" />
		<edge from-layer="4049" from-port="3" to-layer="4079" to-port="1" />
		<edge from-layer="4049" from-port="3" to-layer="4065" to-port="1" />
		<edge from-layer="4050" from-port="2" to-layer="4066" to-port="0" />
		<edge from-layer="4051" from-port="0" to-layer="4052" to-port="0" />
		<edge from-layer="4052" from-port="1" to-layer="4054" to-port="0" />
		<edge from-layer="4053" from-port="0" to-layer="4054" to-port="1" />
		<edge from-layer="4054" from-port="2" to-layer="4055" to-port="1" />
		<edge from-layer="4055" from-port="2" to-layer="4060" to-port="0" />
		<edge from-layer="4056" from-port="0" to-layer="4060" to-port="1" />
		<edge from-layer="4057" from-port="0" to-layer="4060" to-port="2" />
		<edge from-layer="4058" from-port="0" to-layer="4060" to-port="3" />
		<edge from-layer="4059" from-port="0" to-layer="4060" to-port="4" />
		<edge from-layer="4060" from-port="5" to-layer="4062" to-port="0" />
		<edge from-layer="4061" from-port="4" to-layer="4062" to-port="1" />
		<edge from-layer="4061" from-port="4" to-layer="4076" to-port="1" />
		<edge from-layer="4062" from-port="2" to-layer="4064" to-port="0" />
		<edge from-layer="4063" from-port="0" to-layer="4064" to-port="1" />
		<edge from-layer="4064" from-port="2" to-layer="4065" to-port="0" />
		<edge from-layer="4065" from-port="2" to-layer="4066" to-port="1" />
		<edge from-layer="4066" from-port="2" to-layer="4067" to-port="0" />
		<edge from-layer="4067" from-port="1" to-layer="4080" to-port="0" />
		<edge from-layer="4068" from-port="0" to-layer="4069" to-port="0" />
		<edge from-layer="4069" from-port="1" to-layer="4071" to-port="0" />
		<edge from-layer="4070" from-port="0" to-layer="4071" to-port="1" />
		<edge from-layer="4071" from-port="2" to-layer="4072" to-port="1" />
		<edge from-layer="4072" from-port="2" to-layer="4075" to-port="0" />
		<edge from-layer="4073" from-port="0" to-layer="4074" to-port="0" />
		<edge from-layer="4074" from-port="1" to-layer="4075" to-port="1" />
		<edge from-layer="4075" from-port="2" to-layer="4076" to-port="0" />
		<edge from-layer="4076" from-port="2" to-layer="4078" to-port="0" />
		<edge from-layer="4077" from-port="0" to-layer="4078" to-port="1" />
		<edge from-layer="4078" from-port="2" to-layer="4079" to-port="0" />
		<edge from-layer="4079" from-port="2" to-layer="4080" to-port="1" />
		<edge from-layer="4080" from-port="2" to-layer="4085" to-port="0" />
		<edge from-layer="4081" from-port="0" to-layer="4083" to-port="1" />
		<edge from-layer="4082" from-port="0" to-layer="4083" to-port="2" />
		<edge from-layer="4083" from-port="3" to-layer="4084" to-port="2" />
		<edge from-layer="4084" from-port="4" to-layer="4085" to-port="1" />
		<edge from-layer="4085" from-port="2" to-layer="4087" to-port="0" />
		<edge from-layer="4086" from-port="0" to-layer="4087" to-port="1" />
		<edge from-layer="4087" from-port="2" to-layer="4090" to-port="0" />
		<edge from-layer="4088" from-port="0" to-layer="4089" to-port="1" />
		<edge from-layer="4089" from-port="2" to-layer="4090" to-port="1" />
		<edge from-layer="4090" from-port="2" to-layer="4092" to-port="0" />
		<edge from-layer="4091" from-port="0" to-layer="4092" to-port="1" />
		<edge from-layer="4092" from-port="2" to-layer="4097" to-port="0" />
		<edge from-layer="4093" from-port="0" to-layer="4097" to-port="1" />
		<edge from-layer="4094" from-port="0" to-layer="4097" to-port="2" />
		<edge from-layer="4095" from-port="0" to-layer="4097" to-port="3" />
		<edge from-layer="4096" from-port="0" to-layer="4097" to-port="4" />
		<edge from-layer="4097" from-port="5" to-layer="4102" to-port="0" />
		<edge from-layer="4098" from-port="0" to-layer="4099" to-port="0" />
		<edge from-layer="4099" from-port="1" to-layer="4101" to-port="0" />
		<edge from-layer="4100" from-port="0" to-layer="4101" to-port="1" />
		<edge from-layer="4101" from-port="2" to-layer="4102" to-port="1" />
		<edge from-layer="4102" from-port="2" to-layer="4105" to-port="0" />
		<edge from-layer="4103" from-port="0" to-layer="4104" to-port="0" />
		<edge from-layer="4104" from-port="1" to-layer="4105" to-port="1" />
		<edge from-layer="4105" from-port="2" to-layer="4106" to-port="1" />
		<edge from-layer="4106" from-port="2" to-layer="4108" to-port="0" />
		<edge from-layer="4106" from-port="2" to-layer="4146" to-port="0" />
		<edge from-layer="4107" from-port="0" to-layer="4108" to-port="1" />
		<edge from-layer="4108" from-port="2" to-layer="4111" to-port="0" />
		<edge from-layer="4109" from-port="0" to-layer="4110" to-port="0" />
		<edge from-layer="4110" from-port="1" to-layer="4111" to-port="1" />
		<edge from-layer="4111" from-port="2" to-layer="4114" to-port="0" />
		<edge from-layer="4112" from-port="0" to-layer="4113" to-port="0" />
		<edge from-layer="4113" from-port="1" to-layer="4114" to-port="1" />
		<edge from-layer="4114" from-port="2" to-layer="4116" to-port="0" />
		<edge from-layer="4115" from-port="0" to-layer="4116" to-port="1" />
		<edge from-layer="4116" from-port="2" to-layer="4121" to-port="0" />
		<edge from-layer="4117" from-port="0" to-layer="4121" to-port="1" />
		<edge from-layer="4118" from-port="0" to-layer="4121" to-port="2" />
		<edge from-layer="4119" from-port="0" to-layer="4121" to-port="3" />
		<edge from-layer="4120" from-port="0" to-layer="4121" to-port="4" />
		<edge from-layer="4121" from-port="5" to-layer="4126" to-port="0" />
		<edge from-layer="4122" from-port="0" to-layer="4123" to-port="0" />
		<edge from-layer="4123" from-port="1" to-layer="4125" to-port="0" />
		<edge from-layer="4124" from-port="0" to-layer="4125" to-port="1" />
		<edge from-layer="4125" from-port="2" to-layer="4126" to-port="1" />
		<edge from-layer="4126" from-port="2" to-layer="4129" to-port="0" />
		<edge from-layer="4127" from-port="0" to-layer="4128" to-port="0" />
		<edge from-layer="4128" from-port="1" to-layer="4129" to-port="1" />
		<edge from-layer="4129" from-port="2" to-layer="4130" to-port="0" />
		<edge from-layer="4130" from-port="1" to-layer="4132" to-port="0" />
		<edge from-layer="4131" from-port="0" to-layer="4132" to-port="1" />
		<edge from-layer="4132" from-port="2" to-layer="4137" to-port="0" />
		<edge from-layer="4133" from-port="0" to-layer="4137" to-port="1" />
		<edge from-layer="4134" from-port="0" to-layer="4137" to-port="2" />
		<edge from-layer="4135" from-port="0" to-layer="4137" to-port="3" />
		<edge from-layer="4136" from-port="0" to-layer="4137" to-port="4" />
		<edge from-layer="4137" from-port="5" to-layer="4142" to-port="0" />
		<edge from-layer="4138" from-port="0" to-layer="4139" to-port="0" />
		<edge from-layer="4139" from-port="1" to-layer="4141" to-port="0" />
		<edge from-layer="4140" from-port="0" to-layer="4141" to-port="1" />
		<edge from-layer="4141" from-port="2" to-layer="4142" to-port="1" />
		<edge from-layer="4142" from-port="2" to-layer="4145" to-port="0" />
		<edge from-layer="4143" from-port="0" to-layer="4144" to-port="0" />
		<edge from-layer="4144" from-port="1" to-layer="4145" to-port="1" />
		<edge from-layer="4145" from-port="2" to-layer="4146" to-port="1" />
		<edge from-layer="4146" from-port="2" to-layer="4148" to-port="0" />
		<edge from-layer="4146" from-port="2" to-layer="4248" to-port="0" />
		<edge from-layer="4147" from-port="0" to-layer="4148" to-port="1" />
		<edge from-layer="4148" from-port="2" to-layer="4151" to-port="0" />
		<edge from-layer="4149" from-port="0" to-layer="4150" to-port="0" />
		<edge from-layer="4150" from-port="1" to-layer="4151" to-port="1" />
		<edge from-layer="4151" from-port="2" to-layer="4154" to-port="0" />
		<edge from-layer="4152" from-port="0" to-layer="4153" to-port="0" />
		<edge from-layer="4153" from-port="1" to-layer="4154" to-port="1" />
		<edge from-layer="4154" from-port="2" to-layer="4175" to-port="0" />
		<edge from-layer="4154" from-port="2" to-layer="4156" to-port="0" />
		<edge from-layer="4155" from-port="0" to-layer="4156" to-port="1" />
		<edge from-layer="4156" from-port="2" to-layer="4161" to-port="0" />
		<edge from-layer="4157" from-port="0" to-layer="4161" to-port="1" />
		<edge from-layer="4158" from-port="0" to-layer="4161" to-port="2" />
		<edge from-layer="4159" from-port="0" to-layer="4161" to-port="3" />
		<edge from-layer="4160" from-port="0" to-layer="4161" to-port="4" />
		<edge from-layer="4161" from-port="5" to-layer="4166" to-port="0" />
		<edge from-layer="4161" from-port="5" to-layer="4197" to-port="0" />
		<edge from-layer="4161" from-port="5" to-layer="4214" to-port="0" />
		<edge from-layer="4162" from-port="0" to-layer="4163" to-port="0" />
		<edge from-layer="4163" from-port="1" to-layer="4165" to-port="0" />
		<edge from-layer="4164" from-port="0" to-layer="4165" to-port="1" />
		<edge from-layer="4165" from-port="2" to-layer="4166" to-port="1" />
		<edge from-layer="4166" from-port="2" to-layer="4169" to-port="0" />
		<edge from-layer="4167" from-port="0" to-layer="4168" to-port="0" />
		<edge from-layer="4168" from-port="1" to-layer="4169" to-port="1" />
		<edge from-layer="4169" from-port="2" to-layer="4174" to-port="0" />
		<edge from-layer="4170" from-port="0" to-layer="4174" to-port="1" />
		<edge from-layer="4171" from-port="0" to-layer="4174" to-port="2" />
		<edge from-layer="4172" from-port="0" to-layer="4174" to-port="3" />
		<edge from-layer="4173" from-port="0" to-layer="4174" to-port="4" />
		<edge from-layer="4174" from-port="5" to-layer="4182" to-port="0" />
		<edge from-layer="4175" from-port="1" to-layer="4178" to-port="0" />
		<edge from-layer="4175" from-port="1" to-layer="4187" to-port="0" />
		<edge from-layer="4175" from-port="1" to-layer="4225" to-port="0" />
		<edge from-layer="4176" from-port="0" to-layer="4178" to-port="1" />
		<edge from-layer="4177" from-port="0" to-layer="4178" to-port="2" />
		<edge from-layer="4178" from-port="3" to-layer="4181" to-port="0" />
		<edge from-layer="4178" from-port="3" to-layer="4231" to-port="0" />
		<edge from-layer="4179" from-port="0" to-layer="4181" to-port="1" />
		<edge from-layer="4179" from-port="0" to-layer="4226" to-port="1" />
		<edge from-layer="4179" from-port="0" to-layer="4203" to-port="2" />
		<edge from-layer="4180" from-port="0" to-layer="4181" to-port="2" />
		<edge from-layer="4180" from-port="0" to-layer="4191" to-port="2" />
		<edge from-layer="4180" from-port="0" to-layer="4226" to-port="3" />
		<edge from-layer="4180" from-port="0" to-layer="4203" to-port="3" />
		<edge from-layer="4181" from-port="3" to-layer="4182" to-port="1" />
		<edge from-layer="4182" from-port="2" to-layer="4184" to-port="0" />
		<edge from-layer="4183" from-port="0" to-layer="4184" to-port="1" />
		<edge from-layer="4184" from-port="2" to-layer="4192" to-port="0" />
		<edge from-layer="4185" from-port="0" to-layer="4187" to-port="1" />
		<edge from-layer="4186" from-port="0" to-layer="4187" to-port="2" />
		<edge from-layer="4187" from-port="3" to-layer="4189" to-port="0" />
		<edge from-layer="4187" from-port="3" to-layer="4203" to-port="0" />
		<edge from-layer="4187" from-port="3" to-layer="4226" to-port="0" />
		<edge from-layer="4188" from-port="0" to-layer="4189" to-port="1" />
		<edge from-layer="4189" from-port="2" to-layer="4191" to-port="0" />
		<edge from-layer="4190" from-port="0" to-layer="4191" to-port="1" />
		<edge from-layer="4190" from-port="0" to-layer="4203" to-port="1" />
		<edge from-layer="4191" from-port="3" to-layer="4207" to-port="1" />
		<edge from-layer="4191" from-port="3" to-layer="4221" to-port="1" />
		<edge from-layer="4191" from-port="3" to-layer="4192" to-port="1" />
		<edge from-layer="4192" from-port="2" to-layer="4208" to-port="0" />
		<edge from-layer="4193" from-port="0" to-layer="4194" to-port="0" />
		<edge from-layer="4194" from-port="1" to-layer="4196" to-port="0" />
		<edge from-layer="4195" from-port="0" to-layer="4196" to-port="1" />
		<edge from-layer="4196" from-port="2" to-layer="4197" to-port="1" />
		<edge from-layer="4197" from-port="2" to-layer="4202" to-port="0" />
		<edge from-layer="4198" from-port="0" to-layer="4202" to-port="1" />
		<edge from-layer="4199" from-port="0" to-layer="4202" to-port="2" />
		<edge from-layer="4200" from-port="0" to-layer="4202" to-port="3" />
		<edge from-layer="4201" from-port="0" to-layer="4202" to-port="4" />
		<edge from-layer="4202" from-port="5" to-layer="4204" to-port="0" />
		<edge from-layer="4203" from-port="4" to-layer="4204" to-port="1" />
		<edge from-layer="4203" from-port="4" to-layer="4218" to-port="1" />
		<edge from-layer="4204" from-port="2" to-layer="4206" to-port="0" />
		<edge from-layer="4205" from-port="0" to-layer="4206" to-port="1" />
		<edge from-layer="4206" from-port="2" to-layer="4207" to-port="0" />
		<edge from-layer="4207" from-port="2" to-layer="4208" to-port="1" />
		<edge from-layer="4208" from-port="2" to-layer="4209" to-port="0" />
		<edge from-layer="4209" from-port="1" to-layer="4222" to-port="0" />
		<edge from-layer="4210" from-port="0" to-layer="4211" to-port="0" />
		<edge from-layer="4211" from-port="1" to-layer="4213" to-port="0" />
		<edge from-layer="4212" from-port="0" to-layer="4213" to-port="1" />
		<edge from-layer="4213" from-port="2" to-layer="4214" to-port="1" />
		<edge from-layer="4214" from-port="2" to-layer="4217" to-port="0" />
		<edge from-layer="4215" from-port="0" to-layer="4216" to-port="0" />
		<edge from-layer="4216" from-port="1" to-layer="4217" to-port="1" />
		<edge from-layer="4217" from-port="2" to-layer="4218" to-port="0" />
		<edge from-layer="4218" from-port="2" to-layer="4220" to-port="0" />
		<edge from-layer="4219" from-port="0" to-layer="4220" to-port="1" />
		<edge from-layer="4220" from-port="2" to-layer="4221" to-port="0" />
		<edge from-layer="4221" from-port="2" to-layer="4222" to-port="1" />
		<edge from-layer="4222" from-port="2" to-layer="4227" to-port="0" />
		<edge from-layer="4223" from-port="0" to-layer="4225" to-port="1" />
		<edge from-layer="4224" from-port="0" to-layer="4225" to-port="2" />
		<edge from-layer="4225" from-port="3" to-layer="4226" to-port="2" />
		<edge from-layer="4226" from-port="4" to-layer="4227" to-port="1" />
		<edge from-layer="4227" from-port="2" to-layer="4229" to-port="0" />
		<edge from-layer="4228" from-port="0" to-layer="4229" to-port="1" />
		<edge from-layer="4229" from-port="2" to-layer="4232" to-port="0" />
		<edge from-layer="4230" from-port="0" to-layer="4231" to-port="1" />
		<edge from-layer="4231" from-port="2" to-layer="4232" to-port="1" />
		<edge from-layer="4232" from-port="2" to-layer="4234" to-port="0" />
		<edge from-layer="4233" from-port="0" to-layer="4234" to-port="1" />
		<edge from-layer="4234" from-port="2" to-layer="4239" to-port="0" />
		<edge from-layer="4235" from-port="0" to-layer="4239" to-port="1" />
		<edge from-layer="4236" from-port="0" to-layer="4239" to-port="2" />
		<edge from-layer="4237" from-port="0" to-layer="4239" to-port="3" />
		<edge from-layer="4238" from-port="0" to-layer="4239" to-port="4" />
		<edge from-layer="4239" from-port="5" to-layer="4244" to-port="0" />
		<edge from-layer="4240" from-port="0" to-layer="4241" to-port="0" />
		<edge from-layer="4241" from-port="1" to-layer="4243" to-port="0" />
		<edge from-layer="4242" from-port="0" to-layer="4243" to-port="1" />
		<edge from-layer="4243" from-port="2" to-layer="4244" to-port="1" />
		<edge from-layer="4244" from-port="2" to-layer="4247" to-port="0" />
		<edge from-layer="4245" from-port="0" to-layer="4246" to-port="0" />
		<edge from-layer="4246" from-port="1" to-layer="4247" to-port="1" />
		<edge from-layer="4247" from-port="2" to-layer="4248" to-port="1" />
		<edge from-layer="4248" from-port="2" to-layer="4250" to-port="0" />
		<edge from-layer="4248" from-port="2" to-layer="4288" to-port="0" />
		<edge from-layer="4249" from-port="0" to-layer="4250" to-port="1" />
		<edge from-layer="4250" from-port="2" to-layer="4253" to-port="0" />
		<edge from-layer="4251" from-port="0" to-layer="4252" to-port="0" />
		<edge from-layer="4252" from-port="1" to-layer="4253" to-port="1" />
		<edge from-layer="4253" from-port="2" to-layer="4256" to-port="0" />
		<edge from-layer="4254" from-port="0" to-layer="4255" to-port="0" />
		<edge from-layer="4255" from-port="1" to-layer="4256" to-port="1" />
		<edge from-layer="4256" from-port="2" to-layer="4258" to-port="0" />
		<edge from-layer="4257" from-port="0" to-layer="4258" to-port="1" />
		<edge from-layer="4258" from-port="2" to-layer="4263" to-port="0" />
		<edge from-layer="4259" from-port="0" to-layer="4263" to-port="1" />
		<edge from-layer="4260" from-port="0" to-layer="4263" to-port="2" />
		<edge from-layer="4261" from-port="0" to-layer="4263" to-port="3" />
		<edge from-layer="4262" from-port="0" to-layer="4263" to-port="4" />
		<edge from-layer="4263" from-port="5" to-layer="4268" to-port="0" />
		<edge from-layer="4264" from-port="0" to-layer="4265" to-port="0" />
		<edge from-layer="4265" from-port="1" to-layer="4267" to-port="0" />
		<edge from-layer="4266" from-port="0" to-layer="4267" to-port="1" />
		<edge from-layer="4267" from-port="2" to-layer="4268" to-port="1" />
		<edge from-layer="4268" from-port="2" to-layer="4271" to-port="0" />
		<edge from-layer="4269" from-port="0" to-layer="4270" to-port="0" />
		<edge from-layer="4270" from-port="1" to-layer="4271" to-port="1" />
		<edge from-layer="4271" from-port="2" to-layer="4272" to-port="0" />
		<edge from-layer="4272" from-port="1" to-layer="4274" to-port="0" />
		<edge from-layer="4273" from-port="0" to-layer="4274" to-port="1" />
		<edge from-layer="4274" from-port="2" to-layer="4279" to-port="0" />
		<edge from-layer="4275" from-port="0" to-layer="4279" to-port="1" />
		<edge from-layer="4276" from-port="0" to-layer="4279" to-port="2" />
		<edge from-layer="4277" from-port="0" to-layer="4279" to-port="3" />
		<edge from-layer="4278" from-port="0" to-layer="4279" to-port="4" />
		<edge from-layer="4279" from-port="5" to-layer="4284" to-port="0" />
		<edge from-layer="4280" from-port="0" to-layer="4281" to-port="0" />
		<edge from-layer="4281" from-port="1" to-layer="4283" to-port="0" />
		<edge from-layer="4282" from-port="0" to-layer="4283" to-port="1" />
		<edge from-layer="4283" from-port="2" to-layer="4284" to-port="1" />
		<edge from-layer="4284" from-port="2" to-layer="4287" to-port="0" />
		<edge from-layer="4285" from-port="0" to-layer="4286" to-port="0" />
		<edge from-layer="4286" from-port="1" to-layer="4287" to-port="1" />
		<edge from-layer="4287" from-port="2" to-layer="4288" to-port="1" />
		<edge from-layer="4288" from-port="2" to-layer="4290" to-port="0" />
		<edge from-layer="4288" from-port="2" to-layer="4390" to-port="0" />
		<edge from-layer="4289" from-port="0" to-layer="4290" to-port="1" />
		<edge from-layer="4290" from-port="2" to-layer="4293" to-port="0" />
		<edge from-layer="4291" from-port="0" to-layer="4292" to-port="0" />
		<edge from-layer="4292" from-port="1" to-layer="4293" to-port="1" />
		<edge from-layer="4293" from-port="2" to-layer="4296" to-port="0" />
		<edge from-layer="4294" from-port="0" to-layer="4295" to-port="0" />
		<edge from-layer="4295" from-port="1" to-layer="4296" to-port="1" />
		<edge from-layer="4296" from-port="2" to-layer="4317" to-port="0" />
		<edge from-layer="4296" from-port="2" to-layer="4298" to-port="0" />
		<edge from-layer="4297" from-port="0" to-layer="4298" to-port="1" />
		<edge from-layer="4298" from-port="2" to-layer="4303" to-port="0" />
		<edge from-layer="4299" from-port="0" to-layer="4303" to-port="1" />
		<edge from-layer="4300" from-port="0" to-layer="4303" to-port="2" />
		<edge from-layer="4301" from-port="0" to-layer="4303" to-port="3" />
		<edge from-layer="4302" from-port="0" to-layer="4303" to-port="4" />
		<edge from-layer="4303" from-port="5" to-layer="4308" to-port="0" />
		<edge from-layer="4303" from-port="5" to-layer="4339" to-port="0" />
		<edge from-layer="4303" from-port="5" to-layer="4356" to-port="0" />
		<edge from-layer="4304" from-port="0" to-layer="4305" to-port="0" />
		<edge from-layer="4305" from-port="1" to-layer="4307" to-port="0" />
		<edge from-layer="4306" from-port="0" to-layer="4307" to-port="1" />
		<edge from-layer="4307" from-port="2" to-layer="4308" to-port="1" />
		<edge from-layer="4308" from-port="2" to-layer="4311" to-port="0" />
		<edge from-layer="4309" from-port="0" to-layer="4310" to-port="0" />
		<edge from-layer="4310" from-port="1" to-layer="4311" to-port="1" />
		<edge from-layer="4311" from-port="2" to-layer="4316" to-port="0" />
		<edge from-layer="4312" from-port="0" to-layer="4316" to-port="1" />
		<edge from-layer="4313" from-port="0" to-layer="4316" to-port="2" />
		<edge from-layer="4314" from-port="0" to-layer="4316" to-port="3" />
		<edge from-layer="4315" from-port="0" to-layer="4316" to-port="4" />
		<edge from-layer="4316" from-port="5" to-layer="4324" to-port="0" />
		<edge from-layer="4317" from-port="1" to-layer="4367" to-port="0" />
		<edge from-layer="4317" from-port="1" to-layer="4320" to-port="0" />
		<edge from-layer="4317" from-port="1" to-layer="4329" to-port="0" />
		<edge from-layer="4318" from-port="0" to-layer="4320" to-port="1" />
		<edge from-layer="4319" from-port="0" to-layer="4320" to-port="2" />
		<edge from-layer="4320" from-port="3" to-layer="4323" to-port="0" />
		<edge from-layer="4320" from-port="3" to-layer="4373" to-port="0" />
		<edge from-layer="4321" from-port="0" to-layer="4368" to-port="1" />
		<edge from-layer="4321" from-port="0" to-layer="4345" to-port="2" />
		<edge from-layer="4321" from-port="0" to-layer="4323" to-port="1" />
		<edge from-layer="4322" from-port="0" to-layer="4333" to-port="2" />
		<edge from-layer="4322" from-port="0" to-layer="4368" to-port="3" />
		<edge from-layer="4322" from-port="0" to-layer="4345" to-port="3" />
		<edge from-layer="4322" from-port="0" to-layer="4323" to-port="2" />
		<edge from-layer="4323" from-port="3" to-layer="4324" to-port="1" />
		<edge from-layer="4324" from-port="2" to-layer="4326" to-port="0" />
		<edge from-layer="4325" from-port="0" to-layer="4326" to-port="1" />
		<edge from-layer="4326" from-port="2" to-layer="4334" to-port="0" />
		<edge from-layer="4327" from-port="0" to-layer="4329" to-port="1" />
		<edge from-layer="4328" from-port="0" to-layer="4329" to-port="2" />
		<edge from-layer="4329" from-port="3" to-layer="4368" to-port="0" />
		<edge from-layer="4329" from-port="3" to-layer="4345" to-port="0" />
		<edge from-layer="4329" from-port="3" to-layer="4331" to-port="0" />
		<edge from-layer="4330" from-port="0" to-layer="4331" to-port="1" />
		<edge from-layer="4331" from-port="2" to-layer="4333" to-port="0" />
		<edge from-layer="4332" from-port="0" to-layer="4333" to-port="1" />
		<edge from-layer="4332" from-port="0" to-layer="4345" to-port="1" />
		<edge from-layer="4333" from-port="3" to-layer="4349" to-port="1" />
		<edge from-layer="4333" from-port="3" to-layer="4363" to-port="1" />
		<edge from-layer="4333" from-port="3" to-layer="4334" to-port="1" />
		<edge from-layer="4334" from-port="2" to-layer="4350" to-port="0" />
		<edge from-layer="4335" from-port="0" to-layer="4336" to-port="0" />
		<edge from-layer="4336" from-port="1" to-layer="4338" to-port="0" />
		<edge from-layer="4337" from-port="0" to-layer="4338" to-port="1" />
		<edge from-layer="4338" from-port="2" to-layer="4339" to-port="1" />
		<edge from-layer="4339" from-port="2" to-layer="4344" to-port="0" />
		<edge from-layer="4340" from-port="0" to-layer="4344" to-port="1" />
		<edge from-layer="4341" from-port="0" to-layer="4344" to-port="2" />
		<edge from-layer="4342" from-port="0" to-layer="4344" to-port="3" />
		<edge from-layer="4343" from-port="0" to-layer="4344" to-port="4" />
		<edge from-layer="4344" from-port="5" to-layer="4346" to-port="0" />
		<edge from-layer="4345" from-port="4" to-layer="4346" to-port="1" />
		<edge from-layer="4345" from-port="4" to-layer="4360" to-port="1" />
		<edge from-layer="4346" from-port="2" to-layer="4348" to-port="0" />
		<edge from-layer="4347" from-port="0" to-layer="4348" to-port="1" />
		<edge from-layer="4348" from-port="2" to-layer="4349" to-port="0" />
		<edge from-layer="4349" from-port="2" to-layer="4350" to-port="1" />
		<edge from-layer="4350" from-port="2" to-layer="4351" to-port="0" />
		<edge from-layer="4351" from-port="1" to-layer="4364" to-port="0" />
		<edge from-layer="4352" from-port="0" to-layer="4353" to-port="0" />
		<edge from-layer="4353" from-port="1" to-layer="4355" to-port="0" />
		<edge from-layer="4354" from-port="0" to-layer="4355" to-port="1" />
		<edge from-layer="4355" from-port="2" to-layer="4356" to-port="1" />
		<edge from-layer="4356" from-port="2" to-layer="4359" to-port="0" />
		<edge from-layer="4357" from-port="0" to-layer="4358" to-port="0" />
		<edge from-layer="4358" from-port="1" to-layer="4359" to-port="1" />
		<edge from-layer="4359" from-port="2" to-layer="4360" to-port="0" />
		<edge from-layer="4360" from-port="2" to-layer="4362" to-port="0" />
		<edge from-layer="4361" from-port="0" to-layer="4362" to-port="1" />
		<edge from-layer="4362" from-port="2" to-layer="4363" to-port="0" />
		<edge from-layer="4363" from-port="2" to-layer="4364" to-port="1" />
		<edge from-layer="4364" from-port="2" to-layer="4369" to-port="0" />
		<edge from-layer="4365" from-port="0" to-layer="4367" to-port="1" />
		<edge from-layer="4366" from-port="0" to-layer="4367" to-port="2" />
		<edge from-layer="4367" from-port="3" to-layer="4368" to-port="2" />
		<edge from-layer="4368" from-port="4" to-layer="4369" to-port="1" />
		<edge from-layer="4369" from-port="2" to-layer="4371" to-port="0" />
		<edge from-layer="4370" from-port="0" to-layer="4371" to-port="1" />
		<edge from-layer="4371" from-port="2" to-layer="4374" to-port="0" />
		<edge from-layer="4372" from-port="0" to-layer="4373" to-port="1" />
		<edge from-layer="4373" from-port="2" to-layer="4374" to-port="1" />
		<edge from-layer="4374" from-port="2" to-layer="4376" to-port="0" />
		<edge from-layer="4375" from-port="0" to-layer="4376" to-port="1" />
		<edge from-layer="4376" from-port="2" to-layer="4381" to-port="0" />
		<edge from-layer="4377" from-port="0" to-layer="4381" to-port="1" />
		<edge from-layer="4378" from-port="0" to-layer="4381" to-port="2" />
		<edge from-layer="4379" from-port="0" to-layer="4381" to-port="3" />
		<edge from-layer="4380" from-port="0" to-layer="4381" to-port="4" />
		<edge from-layer="4381" from-port="5" to-layer="4386" to-port="0" />
		<edge from-layer="4382" from-port="0" to-layer="4383" to-port="0" />
		<edge from-layer="4383" from-port="1" to-layer="4385" to-port="0" />
		<edge from-layer="4384" from-port="0" to-layer="4385" to-port="1" />
		<edge from-layer="4385" from-port="2" to-layer="4386" to-port="1" />
		<edge from-layer="4386" from-port="2" to-layer="4389" to-port="0" />
		<edge from-layer="4387" from-port="0" to-layer="4388" to-port="0" />
		<edge from-layer="4388" from-port="1" to-layer="4389" to-port="1" />
		<edge from-layer="4389" from-port="2" to-layer="4390" to-port="1" />
		<edge from-layer="4390" from-port="2" to-layer="4392" to-port="0" />
		<edge from-layer="4390" from-port="2" to-layer="4430" to-port="0" />
		<edge from-layer="4391" from-port="0" to-layer="4392" to-port="1" />
		<edge from-layer="4392" from-port="2" to-layer="4395" to-port="0" />
		<edge from-layer="4393" from-port="0" to-layer="4394" to-port="0" />
		<edge from-layer="4394" from-port="1" to-layer="4395" to-port="1" />
		<edge from-layer="4395" from-port="2" to-layer="4398" to-port="0" />
		<edge from-layer="4396" from-port="0" to-layer="4397" to-port="0" />
		<edge from-layer="4397" from-port="1" to-layer="4398" to-port="1" />
		<edge from-layer="4398" from-port="2" to-layer="4400" to-port="0" />
		<edge from-layer="4399" from-port="0" to-layer="4400" to-port="1" />
		<edge from-layer="4400" from-port="2" to-layer="4405" to-port="0" />
		<edge from-layer="4401" from-port="0" to-layer="4405" to-port="1" />
		<edge from-layer="4402" from-port="0" to-layer="4405" to-port="2" />
		<edge from-layer="4403" from-port="0" to-layer="4405" to-port="3" />
		<edge from-layer="4404" from-port="0" to-layer="4405" to-port="4" />
		<edge from-layer="4405" from-port="5" to-layer="4410" to-port="0" />
		<edge from-layer="4406" from-port="0" to-layer="4407" to-port="0" />
		<edge from-layer="4407" from-port="1" to-layer="4409" to-port="0" />
		<edge from-layer="4408" from-port="0" to-layer="4409" to-port="1" />
		<edge from-layer="4409" from-port="2" to-layer="4410" to-port="1" />
		<edge from-layer="4410" from-port="2" to-layer="4413" to-port="0" />
		<edge from-layer="4411" from-port="0" to-layer="4412" to-port="0" />
		<edge from-layer="4412" from-port="1" to-layer="4413" to-port="1" />
		<edge from-layer="4413" from-port="2" to-layer="4414" to-port="0" />
		<edge from-layer="4414" from-port="1" to-layer="4416" to-port="0" />
		<edge from-layer="4415" from-port="0" to-layer="4416" to-port="1" />
		<edge from-layer="4416" from-port="2" to-layer="4421" to-port="0" />
		<edge from-layer="4417" from-port="0" to-layer="4421" to-port="1" />
		<edge from-layer="4418" from-port="0" to-layer="4421" to-port="2" />
		<edge from-layer="4419" from-port="0" to-layer="4421" to-port="3" />
		<edge from-layer="4420" from-port="0" to-layer="4421" to-port="4" />
		<edge from-layer="4421" from-port="5" to-layer="4426" to-port="0" />
		<edge from-layer="4422" from-port="0" to-layer="4423" to-port="0" />
		<edge from-layer="4423" from-port="1" to-layer="4425" to-port="0" />
		<edge from-layer="4424" from-port="0" to-layer="4425" to-port="1" />
		<edge from-layer="4425" from-port="2" to-layer="4426" to-port="1" />
		<edge from-layer="4426" from-port="2" to-layer="4429" to-port="0" />
		<edge from-layer="4427" from-port="0" to-layer="4428" to-port="0" />
		<edge from-layer="4428" from-port="1" to-layer="4429" to-port="1" />
		<edge from-layer="4429" from-port="2" to-layer="4430" to-port="1" />
		<edge from-layer="4430" from-port="2" to-layer="4432" to-port="0" />
		<edge from-layer="4430" from-port="2" to-layer="4532" to-port="0" />
		<edge from-layer="4431" from-port="0" to-layer="4432" to-port="1" />
		<edge from-layer="4432" from-port="2" to-layer="4435" to-port="0" />
		<edge from-layer="4433" from-port="0" to-layer="4434" to-port="0" />
		<edge from-layer="4434" from-port="1" to-layer="4435" to-port="1" />
		<edge from-layer="4435" from-port="2" to-layer="4438" to-port="0" />
		<edge from-layer="4436" from-port="0" to-layer="4437" to-port="0" />
		<edge from-layer="4437" from-port="1" to-layer="4438" to-port="1" />
		<edge from-layer="4438" from-port="2" to-layer="4440" to-port="0" />
		<edge from-layer="4438" from-port="2" to-layer="4459" to-port="0" />
		<edge from-layer="4439" from-port="0" to-layer="4440" to-port="1" />
		<edge from-layer="4440" from-port="2" to-layer="4445" to-port="0" />
		<edge from-layer="4441" from-port="0" to-layer="4445" to-port="1" />
		<edge from-layer="4442" from-port="0" to-layer="4445" to-port="2" />
		<edge from-layer="4443" from-port="0" to-layer="4445" to-port="3" />
		<edge from-layer="4444" from-port="0" to-layer="4445" to-port="4" />
		<edge from-layer="4445" from-port="5" to-layer="4450" to-port="0" />
		<edge from-layer="4445" from-port="5" to-layer="4498" to-port="0" />
		<edge from-layer="4445" from-port="5" to-layer="4481" to-port="0" />
		<edge from-layer="4446" from-port="0" to-layer="4447" to-port="0" />
		<edge from-layer="4447" from-port="1" to-layer="4449" to-port="0" />
		<edge from-layer="4448" from-port="0" to-layer="4449" to-port="1" />
		<edge from-layer="4449" from-port="2" to-layer="4450" to-port="1" />
		<edge from-layer="4450" from-port="2" to-layer="4453" to-port="0" />
		<edge from-layer="4451" from-port="0" to-layer="4452" to-port="0" />
		<edge from-layer="4452" from-port="1" to-layer="4453" to-port="1" />
		<edge from-layer="4453" from-port="2" to-layer="4458" to-port="0" />
		<edge from-layer="4454" from-port="0" to-layer="4458" to-port="1" />
		<edge from-layer="4455" from-port="0" to-layer="4458" to-port="2" />
		<edge from-layer="4456" from-port="0" to-layer="4458" to-port="3" />
		<edge from-layer="4457" from-port="0" to-layer="4458" to-port="4" />
		<edge from-layer="4458" from-port="5" to-layer="4466" to-port="0" />
		<edge from-layer="4459" from-port="1" to-layer="4462" to-port="0" />
		<edge from-layer="4459" from-port="1" to-layer="4509" to-port="0" />
		<edge from-layer="4459" from-port="1" to-layer="4471" to-port="0" />
		<edge from-layer="4460" from-port="0" to-layer="4462" to-port="1" />
		<edge from-layer="4461" from-port="0" to-layer="4462" to-port="2" />
		<edge from-layer="4462" from-port="3" to-layer="4465" to-port="0" />
		<edge from-layer="4462" from-port="3" to-layer="4515" to-port="0" />
		<edge from-layer="4463" from-port="0" to-layer="4465" to-port="1" />
		<edge from-layer="4463" from-port="0" to-layer="4510" to-port="1" />
		<edge from-layer="4463" from-port="0" to-layer="4487" to-port="2" />
		<edge from-layer="4464" from-port="0" to-layer="4510" to-port="3" />
		<edge from-layer="4464" from-port="0" to-layer="4487" to-port="3" />
		<edge from-layer="4464" from-port="0" to-layer="4465" to-port="2" />
		<edge from-layer="4464" from-port="0" to-layer="4475" to-port="2" />
		<edge from-layer="4465" from-port="3" to-layer="4466" to-port="1" />
		<edge from-layer="4466" from-port="2" to-layer="4468" to-port="0" />
		<edge from-layer="4467" from-port="0" to-layer="4468" to-port="1" />
		<edge from-layer="4468" from-port="2" to-layer="4476" to-port="0" />
		<edge from-layer="4469" from-port="0" to-layer="4471" to-port="1" />
		<edge from-layer="4470" from-port="0" to-layer="4471" to-port="2" />
		<edge from-layer="4471" from-port="3" to-layer="4487" to-port="0" />
		<edge from-layer="4471" from-port="3" to-layer="4473" to-port="0" />
		<edge from-layer="4471" from-port="3" to-layer="4510" to-port="0" />
		<edge from-layer="4472" from-port="0" to-layer="4473" to-port="1" />
		<edge from-layer="4473" from-port="2" to-layer="4475" to-port="0" />
		<edge from-layer="4474" from-port="0" to-layer="4475" to-port="1" />
		<edge from-layer="4474" from-port="0" to-layer="4487" to-port="1" />
		<edge from-layer="4475" from-port="3" to-layer="4491" to-port="1" />
		<edge from-layer="4475" from-port="3" to-layer="4476" to-port="1" />
		<edge from-layer="4475" from-port="3" to-layer="4505" to-port="1" />
		<edge from-layer="4476" from-port="2" to-layer="4492" to-port="0" />
		<edge from-layer="4477" from-port="0" to-layer="4478" to-port="0" />
		<edge from-layer="4478" from-port="1" to-layer="4480" to-port="0" />
		<edge from-layer="4479" from-port="0" to-layer="4480" to-port="1" />
		<edge from-layer="4480" from-port="2" to-layer="4481" to-port="1" />
		<edge from-layer="4481" from-port="2" to-layer="4486" to-port="0" />
		<edge from-layer="4482" from-port="0" to-layer="4486" to-port="1" />
		<edge from-layer="4483" from-port="0" to-layer="4486" to-port="2" />
		<edge from-layer="4484" from-port="0" to-layer="4486" to-port="3" />
		<edge from-layer="4485" from-port="0" to-layer="4486" to-port="4" />
		<edge from-layer="4486" from-port="5" to-layer="4488" to-port="0" />
		<edge from-layer="4487" from-port="4" to-layer="4488" to-port="1" />
		<edge from-layer="4487" from-port="4" to-layer="4502" to-port="1" />
		<edge from-layer="4488" from-port="2" to-layer="4490" to-port="0" />
		<edge from-layer="4489" from-port="0" to-layer="4490" to-port="1" />
		<edge from-layer="4490" from-port="2" to-layer="4491" to-port="0" />
		<edge from-layer="4491" from-port="2" to-layer="4492" to-port="1" />
		<edge from-layer="4492" from-port="2" to-layer="4493" to-port="0" />
		<edge from-layer="4493" from-port="1" to-layer="4506" to-port="0" />
		<edge from-layer="4494" from-port="0" to-layer="4495" to-port="0" />
		<edge from-layer="4495" from-port="1" to-layer="4497" to-port="0" />
		<edge from-layer="4496" from-port="0" to-layer="4497" to-port="1" />
		<edge from-layer="4497" from-port="2" to-layer="4498" to-port="1" />
		<edge from-layer="4498" from-port="2" to-layer="4501" to-port="0" />
		<edge from-layer="4499" from-port="0" to-layer="4500" to-port="0" />
		<edge from-layer="4500" from-port="1" to-layer="4501" to-port="1" />
		<edge from-layer="4501" from-port="2" to-layer="4502" to-port="0" />
		<edge from-layer="4502" from-port="2" to-layer="4504" to-port="0" />
		<edge from-layer="4503" from-port="0" to-layer="4504" to-port="1" />
		<edge from-layer="4504" from-port="2" to-layer="4505" to-port="0" />
		<edge from-layer="4505" from-port="2" to-layer="4506" to-port="1" />
		<edge from-layer="4506" from-port="2" to-layer="4511" to-port="0" />
		<edge from-layer="4507" from-port="0" to-layer="4509" to-port="1" />
		<edge from-layer="4508" from-port="0" to-layer="4509" to-port="2" />
		<edge from-layer="4509" from-port="3" to-layer="4510" to-port="2" />
		<edge from-layer="4510" from-port="4" to-layer="4511" to-port="1" />
		<edge from-layer="4511" from-port="2" to-layer="4513" to-port="0" />
		<edge from-layer="4512" from-port="0" to-layer="4513" to-port="1" />
		<edge from-layer="4513" from-port="2" to-layer="4516" to-port="0" />
		<edge from-layer="4514" from-port="0" to-layer="4515" to-port="1" />
		<edge from-layer="4515" from-port="2" to-layer="4516" to-port="1" />
		<edge from-layer="4516" from-port="2" to-layer="4518" to-port="0" />
		<edge from-layer="4517" from-port="0" to-layer="4518" to-port="1" />
		<edge from-layer="4518" from-port="2" to-layer="4523" to-port="0" />
		<edge from-layer="4519" from-port="0" to-layer="4523" to-port="1" />
		<edge from-layer="4520" from-port="0" to-layer="4523" to-port="2" />
		<edge from-layer="4521" from-port="0" to-layer="4523" to-port="3" />
		<edge from-layer="4522" from-port="0" to-layer="4523" to-port="4" />
		<edge from-layer="4523" from-port="5" to-layer="4528" to-port="0" />
		<edge from-layer="4524" from-port="0" to-layer="4525" to-port="0" />
		<edge from-layer="4525" from-port="1" to-layer="4527" to-port="0" />
		<edge from-layer="4526" from-port="0" to-layer="4527" to-port="1" />
		<edge from-layer="4527" from-port="2" to-layer="4528" to-port="1" />
		<edge from-layer="4528" from-port="2" to-layer="4531" to-port="0" />
		<edge from-layer="4529" from-port="0" to-layer="4530" to-port="0" />
		<edge from-layer="4530" from-port="1" to-layer="4531" to-port="1" />
		<edge from-layer="4531" from-port="2" to-layer="4532" to-port="1" />
		<edge from-layer="4532" from-port="2" to-layer="4534" to-port="0" />
		<edge from-layer="4532" from-port="2" to-layer="4572" to-port="0" />
		<edge from-layer="4533" from-port="0" to-layer="4534" to-port="1" />
		<edge from-layer="4534" from-port="2" to-layer="4537" to-port="0" />
		<edge from-layer="4535" from-port="0" to-layer="4536" to-port="0" />
		<edge from-layer="4536" from-port="1" to-layer="4537" to-port="1" />
		<edge from-layer="4537" from-port="2" to-layer="4540" to-port="0" />
		<edge from-layer="4538" from-port="0" to-layer="4539" to-port="0" />
		<edge from-layer="4539" from-port="1" to-layer="4540" to-port="1" />
		<edge from-layer="4540" from-port="2" to-layer="4542" to-port="0" />
		<edge from-layer="4541" from-port="0" to-layer="4542" to-port="1" />
		<edge from-layer="4542" from-port="2" to-layer="4547" to-port="0" />
		<edge from-layer="4543" from-port="0" to-layer="4547" to-port="1" />
		<edge from-layer="4544" from-port="0" to-layer="4547" to-port="2" />
		<edge from-layer="4545" from-port="0" to-layer="4547" to-port="3" />
		<edge from-layer="4546" from-port="0" to-layer="4547" to-port="4" />
		<edge from-layer="4547" from-port="5" to-layer="4552" to-port="0" />
		<edge from-layer="4548" from-port="0" to-layer="4549" to-port="0" />
		<edge from-layer="4549" from-port="1" to-layer="4551" to-port="0" />
		<edge from-layer="4550" from-port="0" to-layer="4551" to-port="1" />
		<edge from-layer="4551" from-port="2" to-layer="4552" to-port="1" />
		<edge from-layer="4552" from-port="2" to-layer="4555" to-port="0" />
		<edge from-layer="4553" from-port="0" to-layer="4554" to-port="0" />
		<edge from-layer="4554" from-port="1" to-layer="4555" to-port="1" />
		<edge from-layer="4555" from-port="2" to-layer="4556" to-port="0" />
		<edge from-layer="4556" from-port="1" to-layer="4558" to-port="0" />
		<edge from-layer="4557" from-port="0" to-layer="4558" to-port="1" />
		<edge from-layer="4558" from-port="2" to-layer="4563" to-port="0" />
		<edge from-layer="4559" from-port="0" to-layer="4563" to-port="1" />
		<edge from-layer="4560" from-port="0" to-layer="4563" to-port="2" />
		<edge from-layer="4561" from-port="0" to-layer="4563" to-port="3" />
		<edge from-layer="4562" from-port="0" to-layer="4563" to-port="4" />
		<edge from-layer="4563" from-port="5" to-layer="4568" to-port="0" />
		<edge from-layer="4564" from-port="0" to-layer="4565" to-port="0" />
		<edge from-layer="4565" from-port="1" to-layer="4567" to-port="0" />
		<edge from-layer="4566" from-port="0" to-layer="4567" to-port="1" />
		<edge from-layer="4567" from-port="2" to-layer="4568" to-port="1" />
		<edge from-layer="4568" from-port="2" to-layer="4571" to-port="0" />
		<edge from-layer="4569" from-port="0" to-layer="4570" to-port="0" />
		<edge from-layer="4570" from-port="1" to-layer="4571" to-port="1" />
		<edge from-layer="4571" from-port="2" to-layer="4572" to-port="1" />
		<edge from-layer="4572" from-port="2" to-layer="4574" to-port="0" />
		<edge from-layer="4573" from-port="0" to-layer="4574" to-port="1" />
		<edge from-layer="4574" from-port="2" to-layer="4577" to-port="0" />
		<edge from-layer="4575" from-port="0" to-layer="4576" to-port="0" />
		<edge from-layer="4576" from-port="1" to-layer="4577" to-port="1" />
		<edge from-layer="4577" from-port="2" to-layer="4580" to-port="0" />
		<edge from-layer="4578" from-port="0" to-layer="4579" to-port="0" />
		<edge from-layer="4579" from-port="1" to-layer="4580" to-port="1" />
		<edge from-layer="4580" from-port="2" to-layer="4581" to-port="0" />
	</edges>
	<rt_info>
		<Runtime_version value="2024.1.0-15008-f4afc983258-releases/2024/1" />
		<conversion_parameters>
			<framework value="pytorch" />
			<is_python_object value="True" />
		</conversion_parameters>
		<nncf>
			<friendly_names_were_updated value="True" />
			<quantization>
				<advanced_parameters value="{'overflow_fix': None, 'quantize_outputs': False, 'inplace_statistics': True, 'disable_channel_alignment': True, 'disable_bias_correction': False, 'batchwise_statistics': None, 'activations_quantization_params': None, 'weights_quantization_params': None, 'activations_range_estimator_params': {'min': {'statistics_type': None, 'aggregator_type': None, 'clipping_value': None, 'quantile_outlier_prob': 0.0001}, 'max': {'statistics_type': None, 'aggregator_type': None, 'clipping_value': None, 'quantile_outlier_prob': 0.0001}}, 'weights_range_estimator_params': {'min': {'statistics_type': None, 'aggregator_type': None, 'clipping_value': None, 'quantile_outlier_prob': 0.0001}, 'max': {'statistics_type': None, 'aggregator_type': None, 'clipping_value': None, 'quantile_outlier_prob': 0.0001}}, 'bias_correction_params': {'apply_for_all_nodes': False, 'threshold': None}, 'smooth_quant_alphas': {'convolution': -1, 'matmul': 0.5}, 'smooth_quant_alpha': 0.5, 'backend_params': {}}" />
				<fast_bias_correction value="True" />
				<ignored_scope value="None" />
				<model_type value="transformer" />
				<preset value="None" />
				<subset_size value="20" />
				<target_device value="ANY" />
			</quantization>
		</nncf>
		<optimum>
			<optimum_intel_version value="1.20.0.dev0+2559620" />
			<optimum_version value="1.23.1" />
			<pytorch_version value="2.3.0+cpu" />
			<transformers_version value="4.40.2" />
		</optimum>
	</rt_info>
</net>
